<?xml version="1.0"?>
<net name="torch-jit-export" version="11">
	<layers>
		<layer id="0" name="input" type="Parameter" version="opset1">
			<data shape="1,3,8,224,224" element_type="f32" />
			<rt_info>
				<attribute name="old_api_map_element_type" version="0" value="f16" />
			</rt_info>
			<output>
				<port id="0" precision="FP32" names="input">
					<dim>1</dim>
					<dim>3</dim>
					<dim>8</dim>
					<dim>224</dim>
					<dim>224</dim>
					<rt_info>
						<attribute name="layout" version="0" layout="[N,C,D,H,W]" />
					</rt_info>
				</port>
			</output>
		</layer>
		<layer id="1" name="Constant_4591_compressed" type="Const" version="opset1">
			<data element_type="f16" shape="1, 3, 1, 1, 1" offset="0" size="6" />
			<rt_info>
				<attribute name="preprocessing" version="0" />
			</rt_info>
			<output>
				<port id="0" precision="FP16">
					<dim>1</dim>
					<dim>3</dim>
					<dim>1</dim>
					<dim>1</dim>
					<dim>1</dim>
				</port>
			</output>
		</layer>
		<layer id="2" name="Constant_4591" type="Convert" version="opset1">
			<data destination_type="f32" />
			<rt_info>
				<attribute name="decompression" version="0" />
				<attribute name="preprocessing" version="0" />
			</rt_info>
			<input>
				<port id="0" precision="FP16">
					<dim>1</dim>
					<dim>3</dim>
					<dim>1</dim>
					<dim>1</dim>
					<dim>1</dim>
				</port>
			</input>
			<output>
				<port id="1" precision="FP32">
					<dim>1</dim>
					<dim>3</dim>
					<dim>1</dim>
					<dim>1</dim>
					<dim>1</dim>
				</port>
			</output>
		</layer>
		<layer id="3" name="Multiply_7857" type="Multiply" version="opset1">
			<data auto_broadcast="numpy" />
			<input>
				<port id="0" precision="FP32">
					<dim>1</dim>
					<dim>3</dim>
					<dim>8</dim>
					<dim>224</dim>
					<dim>224</dim>
				</port>
				<port id="1" precision="FP32">
					<dim>1</dim>
					<dim>3</dim>
					<dim>1</dim>
					<dim>1</dim>
					<dim>1</dim>
				</port>
			</input>
			<output>
				<port id="2" precision="FP32">
					<dim>1</dim>
					<dim>3</dim>
					<dim>8</dim>
					<dim>224</dim>
					<dim>224</dim>
				</port>
			</output>
		</layer>
		<layer id="4" name="Constant_7859_compressed" type="Const" version="opset1">
			<data element_type="f16" shape="1, 3, 1, 1, 1" offset="6" size="6" />
			<output>
				<port id="0" precision="FP16">
					<dim>1</dim>
					<dim>3</dim>
					<dim>1</dim>
					<dim>1</dim>
					<dim>1</dim>
				</port>
			</output>
		</layer>
		<layer id="5" name="Constant_7859" type="Convert" version="opset1">
			<data destination_type="f32" />
			<rt_info>
				<attribute name="decompression" version="0" />
			</rt_info>
			<input>
				<port id="0" precision="FP16">
					<dim>1</dim>
					<dim>3</dim>
					<dim>1</dim>
					<dim>1</dim>
					<dim>1</dim>
				</port>
			</input>
			<output>
				<port id="1" precision="FP32">
					<dim>1</dim>
					<dim>3</dim>
					<dim>1</dim>
					<dim>1</dim>
					<dim>1</dim>
				</port>
			</output>
		</layer>
		<layer id="6" name="Divide_1807" type="Add" version="opset1">
			<data auto_broadcast="numpy" />
			<input>
				<port id="0" precision="FP32">
					<dim>1</dim>
					<dim>3</dim>
					<dim>8</dim>
					<dim>224</dim>
					<dim>224</dim>
				</port>
				<port id="1" precision="FP32">
					<dim>1</dim>
					<dim>3</dim>
					<dim>1</dim>
					<dim>1</dim>
					<dim>1</dim>
				</port>
			</input>
			<output>
				<port id="2" precision="FP32">
					<dim>1</dim>
					<dim>3</dim>
					<dim>8</dim>
					<dim>224</dim>
					<dim>224</dim>
				</port>
			</output>
		</layer>
		<layer id="7" name="Multiply_8222_compressed" type="Const" version="opset1">
			<data element_type="f16" shape="16, 3, 1, 3, 3" offset="12" size="864" />
			<output>
				<port id="0" precision="FP16">
					<dim>16</dim>
					<dim>3</dim>
					<dim>1</dim>
					<dim>3</dim>
					<dim>3</dim>
				</port>
			</output>
		</layer>
		<layer id="8" name="Multiply_8222" type="Convert" version="opset1">
			<data destination_type="f32" />
			<rt_info>
				<attribute name="decompression" version="0" />
			</rt_info>
			<input>
				<port id="0" precision="FP16">
					<dim>16</dim>
					<dim>3</dim>
					<dim>1</dim>
					<dim>3</dim>
					<dim>3</dim>
				</port>
			</input>
			<output>
				<port id="1" precision="FP32">
					<dim>16</dim>
					<dim>3</dim>
					<dim>1</dim>
					<dim>3</dim>
					<dim>3</dim>
				</port>
			</output>
		</layer>
		<layer id="9" name="Multiply_7861" type="Convolution" version="opset1">
			<data strides="1, 2, 2" dilations="1, 1, 1" pads_begin="0, 1, 1" pads_end="0, 1, 1" auto_pad="explicit" />
			<input>
				<port id="0" precision="FP32">
					<dim>1</dim>
					<dim>3</dim>
					<dim>8</dim>
					<dim>224</dim>
					<dim>224</dim>
				</port>
				<port id="1" precision="FP32">
					<dim>16</dim>
					<dim>3</dim>
					<dim>1</dim>
					<dim>3</dim>
					<dim>3</dim>
				</port>
			</input>
			<output>
				<port id="2" precision="FP32">
					<dim>1</dim>
					<dim>16</dim>
					<dim>8</dim>
					<dim>112</dim>
					<dim>112</dim>
				</port>
			</output>
		</layer>
		<layer id="10" name="Constant_7866_compressed" type="Const" version="opset1">
			<data element_type="f16" shape="1, 16, 1, 1, 1" offset="876" size="32" />
			<output>
				<port id="0" precision="FP16">
					<dim>1</dim>
					<dim>16</dim>
					<dim>1</dim>
					<dim>1</dim>
					<dim>1</dim>
				</port>
			</output>
		</layer>
		<layer id="11" name="Constant_7866" type="Convert" version="opset1">
			<data destination_type="f32" />
			<rt_info>
				<attribute name="decompression" version="0" />
			</rt_info>
			<input>
				<port id="0" precision="FP16">
					<dim>1</dim>
					<dim>16</dim>
					<dim>1</dim>
					<dim>1</dim>
					<dim>1</dim>
				</port>
			</input>
			<output>
				<port id="1" precision="FP32">
					<dim>1</dim>
					<dim>16</dim>
					<dim>1</dim>
					<dim>1</dim>
					<dim>1</dim>
				</port>
			</output>
		</layer>
		<layer id="12" name="BatchNormalization_1" type="Add" version="opset1">
			<data auto_broadcast="numpy" />
			<input>
				<port id="0" precision="FP32">
					<dim>1</dim>
					<dim>16</dim>
					<dim>8</dim>
					<dim>112</dim>
					<dim>112</dim>
				</port>
				<port id="1" precision="FP32">
					<dim>1</dim>
					<dim>16</dim>
					<dim>1</dim>
					<dim>1</dim>
					<dim>1</dim>
				</port>
			</input>
			<output>
				<port id="2" precision="FP32" names="344">
					<dim>1</dim>
					<dim>16</dim>
					<dim>8</dim>
					<dim>112</dim>
					<dim>112</dim>
				</port>
			</output>
		</layer>
		<layer id="13" name="Mul_7" type="HSwish" version="opset4">
			<input>
				<port id="0" precision="FP32">
					<dim>1</dim>
					<dim>16</dim>
					<dim>8</dim>
					<dim>112</dim>
					<dim>112</dim>
				</port>
			</input>
			<output>
				<port id="1" precision="FP32" names="350">
					<dim>1</dim>
					<dim>16</dim>
					<dim>8</dim>
					<dim>112</dim>
					<dim>112</dim>
				</port>
			</output>
		</layer>
		<layer id="14" name="Multiply_8228_compressed" type="Const" version="opset1">
			<data element_type="f16" shape="16, 1, 1, 1, 3, 3" offset="908" size="288" />
			<output>
				<port id="0" precision="FP16">
					<dim>16</dim>
					<dim>1</dim>
					<dim>1</dim>
					<dim>1</dim>
					<dim>3</dim>
					<dim>3</dim>
				</port>
			</output>
		</layer>
		<layer id="15" name="Multiply_8228" type="Convert" version="opset1">
			<data destination_type="f32" />
			<rt_info>
				<attribute name="decompression" version="0" />
			</rt_info>
			<input>
				<port id="0" precision="FP16">
					<dim>16</dim>
					<dim>1</dim>
					<dim>1</dim>
					<dim>1</dim>
					<dim>3</dim>
					<dim>3</dim>
				</port>
			</input>
			<output>
				<port id="1" precision="FP32">
					<dim>16</dim>
					<dim>1</dim>
					<dim>1</dim>
					<dim>1</dim>
					<dim>3</dim>
					<dim>3</dim>
				</port>
			</output>
		</layer>
		<layer id="16" name="Multiply_7868" type="GroupConvolution" version="opset1">
			<data strides="1, 1, 1" pads_begin="0, 1, 1" pads_end="0, 1, 1" dilations="1, 1, 1" auto_pad="explicit" />
			<input>
				<port id="0" precision="FP32">
					<dim>1</dim>
					<dim>16</dim>
					<dim>8</dim>
					<dim>112</dim>
					<dim>112</dim>
				</port>
				<port id="1" precision="FP32">
					<dim>16</dim>
					<dim>1</dim>
					<dim>1</dim>
					<dim>1</dim>
					<dim>3</dim>
					<dim>3</dim>
				</port>
			</input>
			<output>
				<port id="2" precision="FP32" names="351">
					<dim>1</dim>
					<dim>16</dim>
					<dim>8</dim>
					<dim>112</dim>
					<dim>112</dim>
				</port>
			</output>
		</layer>
		<layer id="17" name="Constant_7873_compressed" type="Const" version="opset1">
			<data element_type="f16" shape="1, 16, 1, 1, 1" offset="1196" size="32" />
			<output>
				<port id="0" precision="FP16">
					<dim>1</dim>
					<dim>16</dim>
					<dim>1</dim>
					<dim>1</dim>
					<dim>1</dim>
				</port>
			</output>
		</layer>
		<layer id="18" name="Constant_7873" type="Convert" version="opset1">
			<data destination_type="f32" />
			<rt_info>
				<attribute name="decompression" version="0" />
			</rt_info>
			<input>
				<port id="0" precision="FP16">
					<dim>1</dim>
					<dim>16</dim>
					<dim>1</dim>
					<dim>1</dim>
					<dim>1</dim>
				</port>
			</input>
			<output>
				<port id="1" precision="FP32">
					<dim>1</dim>
					<dim>16</dim>
					<dim>1</dim>
					<dim>1</dim>
					<dim>1</dim>
				</port>
			</output>
		</layer>
		<layer id="19" name="BatchNormalization_9" type="Add" version="opset1">
			<data auto_broadcast="numpy" />
			<input>
				<port id="0" precision="FP32">
					<dim>1</dim>
					<dim>16</dim>
					<dim>8</dim>
					<dim>112</dim>
					<dim>112</dim>
				</port>
				<port id="1" precision="FP32">
					<dim>1</dim>
					<dim>16</dim>
					<dim>1</dim>
					<dim>1</dim>
					<dim>1</dim>
				</port>
			</input>
			<output>
				<port id="2" precision="FP32" names="352">
					<dim>1</dim>
					<dim>16</dim>
					<dim>8</dim>
					<dim>112</dim>
					<dim>112</dim>
				</port>
			</output>
		</layer>
		<layer id="20" name="Relu_10" type="ReLU" version="opset1">
			<input>
				<port id="0" precision="FP32">
					<dim>1</dim>
					<dim>16</dim>
					<dim>8</dim>
					<dim>112</dim>
					<dim>112</dim>
				</port>
			</input>
			<output>
				<port id="1" precision="FP32" names="353">
					<dim>1</dim>
					<dim>16</dim>
					<dim>8</dim>
					<dim>112</dim>
					<dim>112</dim>
				</port>
			</output>
		</layer>
		<layer id="21" name="Multiply_8233_compressed" type="Const" version="opset1">
			<data element_type="f16" shape="16, 16, 5, 1, 1" offset="1228" size="2560" />
			<output>
				<port id="0" precision="FP16">
					<dim>16</dim>
					<dim>16</dim>
					<dim>5</dim>
					<dim>1</dim>
					<dim>1</dim>
				</port>
			</output>
		</layer>
		<layer id="22" name="Multiply_8233" type="Convert" version="opset1">
			<data destination_type="f32" />
			<rt_info>
				<attribute name="decompression" version="0" />
			</rt_info>
			<input>
				<port id="0" precision="FP16">
					<dim>16</dim>
					<dim>16</dim>
					<dim>5</dim>
					<dim>1</dim>
					<dim>1</dim>
				</port>
			</input>
			<output>
				<port id="1" precision="FP32">
					<dim>16</dim>
					<dim>16</dim>
					<dim>5</dim>
					<dim>1</dim>
					<dim>1</dim>
				</port>
			</output>
		</layer>
		<layer id="23" name="Multiply_7875" type="Convolution" version="opset1">
			<data strides="1, 1, 1" dilations="1, 1, 1" pads_begin="2, 0, 0" pads_end="2, 0, 0" auto_pad="explicit" />
			<input>
				<port id="0" precision="FP32">
					<dim>1</dim>
					<dim>16</dim>
					<dim>8</dim>
					<dim>112</dim>
					<dim>112</dim>
				</port>
				<port id="1" precision="FP32">
					<dim>16</dim>
					<dim>16</dim>
					<dim>5</dim>
					<dim>1</dim>
					<dim>1</dim>
				</port>
			</input>
			<output>
				<port id="2" precision="FP32">
					<dim>1</dim>
					<dim>16</dim>
					<dim>8</dim>
					<dim>112</dim>
					<dim>112</dim>
				</port>
			</output>
		</layer>
		<layer id="24" name="Constant_7880_compressed" type="Const" version="opset1">
			<data element_type="f16" shape="1, 16, 1, 1, 1" offset="3788" size="32" />
			<output>
				<port id="0" precision="FP16">
					<dim>1</dim>
					<dim>16</dim>
					<dim>1</dim>
					<dim>1</dim>
					<dim>1</dim>
				</port>
			</output>
		</layer>
		<layer id="25" name="Constant_7880" type="Convert" version="opset1">
			<data destination_type="f32" />
			<rt_info>
				<attribute name="decompression" version="0" />
			</rt_info>
			<input>
				<port id="0" precision="FP16">
					<dim>1</dim>
					<dim>16</dim>
					<dim>1</dim>
					<dim>1</dim>
					<dim>1</dim>
				</port>
			</input>
			<output>
				<port id="1" precision="FP32">
					<dim>1</dim>
					<dim>16</dim>
					<dim>1</dim>
					<dim>1</dim>
					<dim>1</dim>
				</port>
			</output>
		</layer>
		<layer id="26" name="BatchNormalization_12" type="Add" version="opset1">
			<data auto_broadcast="numpy" />
			<input>
				<port id="0" precision="FP32">
					<dim>1</dim>
					<dim>16</dim>
					<dim>8</dim>
					<dim>112</dim>
					<dim>112</dim>
				</port>
				<port id="1" precision="FP32">
					<dim>1</dim>
					<dim>16</dim>
					<dim>1</dim>
					<dim>1</dim>
					<dim>1</dim>
				</port>
			</input>
			<output>
				<port id="2" precision="FP32" names="355">
					<dim>1</dim>
					<dim>16</dim>
					<dim>8</dim>
					<dim>112</dim>
					<dim>112</dim>
				</port>
			</output>
		</layer>
		<layer id="27" name="Add_13" type="Add" version="opset1">
			<data auto_broadcast="numpy" />
			<input>
				<port id="0" precision="FP32">
					<dim>1</dim>
					<dim>16</dim>
					<dim>8</dim>
					<dim>112</dim>
					<dim>112</dim>
				</port>
				<port id="1" precision="FP32">
					<dim>1</dim>
					<dim>16</dim>
					<dim>8</dim>
					<dim>112</dim>
					<dim>112</dim>
				</port>
			</input>
			<output>
				<port id="2" precision="FP32" names="356">
					<dim>1</dim>
					<dim>16</dim>
					<dim>8</dim>
					<dim>112</dim>
					<dim>112</dim>
				</port>
			</output>
		</layer>
		<layer id="28" name="Multiply_8239_compressed" type="Const" version="opset1">
			<data element_type="f16" shape="64, 16, 1, 1, 1" offset="3820" size="2048" />
			<output>
				<port id="0" precision="FP16">
					<dim>64</dim>
					<dim>16</dim>
					<dim>1</dim>
					<dim>1</dim>
					<dim>1</dim>
				</port>
			</output>
		</layer>
		<layer id="29" name="Multiply_8239" type="Convert" version="opset1">
			<data destination_type="f32" />
			<rt_info>
				<attribute name="decompression" version="0" />
			</rt_info>
			<input>
				<port id="0" precision="FP16">
					<dim>64</dim>
					<dim>16</dim>
					<dim>1</dim>
					<dim>1</dim>
					<dim>1</dim>
				</port>
			</input>
			<output>
				<port id="1" precision="FP32">
					<dim>64</dim>
					<dim>16</dim>
					<dim>1</dim>
					<dim>1</dim>
					<dim>1</dim>
				</port>
			</output>
		</layer>
		<layer id="30" name="Multiply_7882" type="Convolution" version="opset1">
			<data strides="1, 1, 1" dilations="1, 1, 1" pads_begin="0, 0, 0" pads_end="0, 0, 0" auto_pad="explicit" />
			<input>
				<port id="0" precision="FP32">
					<dim>1</dim>
					<dim>16</dim>
					<dim>8</dim>
					<dim>112</dim>
					<dim>112</dim>
				</port>
				<port id="1" precision="FP32">
					<dim>64</dim>
					<dim>16</dim>
					<dim>1</dim>
					<dim>1</dim>
					<dim>1</dim>
				</port>
			</input>
			<output>
				<port id="2" precision="FP32">
					<dim>1</dim>
					<dim>64</dim>
					<dim>8</dim>
					<dim>112</dim>
					<dim>112</dim>
				</port>
			</output>
		</layer>
		<layer id="31" name="Constant_7887_compressed" type="Const" version="opset1">
			<data element_type="f16" shape="1, 64, 1, 1, 1" offset="5868" size="128" />
			<output>
				<port id="0" precision="FP16">
					<dim>1</dim>
					<dim>64</dim>
					<dim>1</dim>
					<dim>1</dim>
					<dim>1</dim>
				</port>
			</output>
		</layer>
		<layer id="32" name="Constant_7887" type="Convert" version="opset1">
			<data destination_type="f32" />
			<rt_info>
				<attribute name="decompression" version="0" />
			</rt_info>
			<input>
				<port id="0" precision="FP16">
					<dim>1</dim>
					<dim>64</dim>
					<dim>1</dim>
					<dim>1</dim>
					<dim>1</dim>
				</port>
			</input>
			<output>
				<port id="1" precision="FP32">
					<dim>1</dim>
					<dim>64</dim>
					<dim>1</dim>
					<dim>1</dim>
					<dim>1</dim>
				</port>
			</output>
		</layer>
		<layer id="33" name="BatchNormalization_15" type="Add" version="opset1">
			<data auto_broadcast="numpy" />
			<input>
				<port id="0" precision="FP32">
					<dim>1</dim>
					<dim>64</dim>
					<dim>8</dim>
					<dim>112</dim>
					<dim>112</dim>
				</port>
				<port id="1" precision="FP32">
					<dim>1</dim>
					<dim>64</dim>
					<dim>1</dim>
					<dim>1</dim>
					<dim>1</dim>
				</port>
			</input>
			<output>
				<port id="2" precision="FP32" names="358">
					<dim>1</dim>
					<dim>64</dim>
					<dim>8</dim>
					<dim>112</dim>
					<dim>112</dim>
				</port>
			</output>
		</layer>
		<layer id="34" name="Relu_16" type="ReLU" version="opset1">
			<input>
				<port id="0" precision="FP32">
					<dim>1</dim>
					<dim>64</dim>
					<dim>8</dim>
					<dim>112</dim>
					<dim>112</dim>
				</port>
			</input>
			<output>
				<port id="1" precision="FP32" names="359">
					<dim>1</dim>
					<dim>64</dim>
					<dim>8</dim>
					<dim>112</dim>
					<dim>112</dim>
				</port>
			</output>
		</layer>
		<layer id="35" name="Multiply_8245_compressed" type="Const" version="opset1">
			<data element_type="f16" shape="64, 1, 1, 1, 3, 3" offset="5996" size="1152" />
			<output>
				<port id="0" precision="FP16">
					<dim>64</dim>
					<dim>1</dim>
					<dim>1</dim>
					<dim>1</dim>
					<dim>3</dim>
					<dim>3</dim>
				</port>
			</output>
		</layer>
		<layer id="36" name="Multiply_8245" type="Convert" version="opset1">
			<data destination_type="f32" />
			<rt_info>
				<attribute name="decompression" version="0" />
			</rt_info>
			<input>
				<port id="0" precision="FP16">
					<dim>64</dim>
					<dim>1</dim>
					<dim>1</dim>
					<dim>1</dim>
					<dim>3</dim>
					<dim>3</dim>
				</port>
			</input>
			<output>
				<port id="1" precision="FP32">
					<dim>64</dim>
					<dim>1</dim>
					<dim>1</dim>
					<dim>1</dim>
					<dim>3</dim>
					<dim>3</dim>
				</port>
			</output>
		</layer>
		<layer id="37" name="Multiply_7889" type="GroupConvolution" version="opset1">
			<data strides="1, 2, 2" pads_begin="0, 1, 1" pads_end="0, 1, 1" dilations="1, 1, 1" auto_pad="explicit" />
			<input>
				<port id="0" precision="FP32">
					<dim>1</dim>
					<dim>64</dim>
					<dim>8</dim>
					<dim>112</dim>
					<dim>112</dim>
				</port>
				<port id="1" precision="FP32">
					<dim>64</dim>
					<dim>1</dim>
					<dim>1</dim>
					<dim>1</dim>
					<dim>3</dim>
					<dim>3</dim>
				</port>
			</input>
			<output>
				<port id="2" precision="FP32" names="360">
					<dim>1</dim>
					<dim>64</dim>
					<dim>8</dim>
					<dim>56</dim>
					<dim>56</dim>
				</port>
			</output>
		</layer>
		<layer id="38" name="Constant_7894_compressed" type="Const" version="opset1">
			<data element_type="f16" shape="1, 64, 1, 1, 1" offset="7148" size="128" />
			<output>
				<port id="0" precision="FP16">
					<dim>1</dim>
					<dim>64</dim>
					<dim>1</dim>
					<dim>1</dim>
					<dim>1</dim>
				</port>
			</output>
		</layer>
		<layer id="39" name="Constant_7894" type="Convert" version="opset1">
			<data destination_type="f32" />
			<rt_info>
				<attribute name="decompression" version="0" />
			</rt_info>
			<input>
				<port id="0" precision="FP16">
					<dim>1</dim>
					<dim>64</dim>
					<dim>1</dim>
					<dim>1</dim>
					<dim>1</dim>
				</port>
			</input>
			<output>
				<port id="1" precision="FP32">
					<dim>1</dim>
					<dim>64</dim>
					<dim>1</dim>
					<dim>1</dim>
					<dim>1</dim>
				</port>
			</output>
		</layer>
		<layer id="40" name="BatchNormalization_18" type="Add" version="opset1">
			<data auto_broadcast="numpy" />
			<input>
				<port id="0" precision="FP32">
					<dim>1</dim>
					<dim>64</dim>
					<dim>8</dim>
					<dim>56</dim>
					<dim>56</dim>
				</port>
				<port id="1" precision="FP32">
					<dim>1</dim>
					<dim>64</dim>
					<dim>1</dim>
					<dim>1</dim>
					<dim>1</dim>
				</port>
			</input>
			<output>
				<port id="2" precision="FP32" names="361">
					<dim>1</dim>
					<dim>64</dim>
					<dim>8</dim>
					<dim>56</dim>
					<dim>56</dim>
				</port>
			</output>
		</layer>
		<layer id="41" name="Relu_19" type="ReLU" version="opset1">
			<input>
				<port id="0" precision="FP32">
					<dim>1</dim>
					<dim>64</dim>
					<dim>8</dim>
					<dim>56</dim>
					<dim>56</dim>
				</port>
			</input>
			<output>
				<port id="1" precision="FP32" names="362">
					<dim>1</dim>
					<dim>64</dim>
					<dim>8</dim>
					<dim>56</dim>
					<dim>56</dim>
				</port>
			</output>
		</layer>
		<layer id="42" name="Multiply_8250_compressed" type="Const" version="opset1">
			<data element_type="f16" shape="24, 64, 3, 1, 1" offset="7276" size="9216" />
			<output>
				<port id="0" precision="FP16">
					<dim>24</dim>
					<dim>64</dim>
					<dim>3</dim>
					<dim>1</dim>
					<dim>1</dim>
				</port>
			</output>
		</layer>
		<layer id="43" name="Multiply_8250" type="Convert" version="opset1">
			<data destination_type="f32" />
			<rt_info>
				<attribute name="decompression" version="0" />
			</rt_info>
			<input>
				<port id="0" precision="FP16">
					<dim>24</dim>
					<dim>64</dim>
					<dim>3</dim>
					<dim>1</dim>
					<dim>1</dim>
				</port>
			</input>
			<output>
				<port id="1" precision="FP32">
					<dim>24</dim>
					<dim>64</dim>
					<dim>3</dim>
					<dim>1</dim>
					<dim>1</dim>
				</port>
			</output>
		</layer>
		<layer id="44" name="Multiply_7896" type="Convolution" version="opset1">
			<data strides="1, 1, 1" dilations="1, 1, 1" pads_begin="1, 0, 0" pads_end="1, 0, 0" auto_pad="explicit" />
			<input>
				<port id="0" precision="FP32">
					<dim>1</dim>
					<dim>64</dim>
					<dim>8</dim>
					<dim>56</dim>
					<dim>56</dim>
				</port>
				<port id="1" precision="FP32">
					<dim>24</dim>
					<dim>64</dim>
					<dim>3</dim>
					<dim>1</dim>
					<dim>1</dim>
				</port>
			</input>
			<output>
				<port id="2" precision="FP32">
					<dim>1</dim>
					<dim>24</dim>
					<dim>8</dim>
					<dim>56</dim>
					<dim>56</dim>
				</port>
			</output>
		</layer>
		<layer id="45" name="Constant_7901_compressed" type="Const" version="opset1">
			<data element_type="f16" shape="1, 24, 1, 1, 1" offset="16492" size="48" />
			<output>
				<port id="0" precision="FP16">
					<dim>1</dim>
					<dim>24</dim>
					<dim>1</dim>
					<dim>1</dim>
					<dim>1</dim>
				</port>
			</output>
		</layer>
		<layer id="46" name="Constant_7901" type="Convert" version="opset1">
			<data destination_type="f32" />
			<rt_info>
				<attribute name="decompression" version="0" />
			</rt_info>
			<input>
				<port id="0" precision="FP16">
					<dim>1</dim>
					<dim>24</dim>
					<dim>1</dim>
					<dim>1</dim>
					<dim>1</dim>
				</port>
			</input>
			<output>
				<port id="1" precision="FP32">
					<dim>1</dim>
					<dim>24</dim>
					<dim>1</dim>
					<dim>1</dim>
					<dim>1</dim>
				</port>
			</output>
		</layer>
		<layer id="47" name="BatchNormalization_21" type="Add" version="opset1">
			<data auto_broadcast="numpy" />
			<input>
				<port id="0" precision="FP32">
					<dim>1</dim>
					<dim>24</dim>
					<dim>8</dim>
					<dim>56</dim>
					<dim>56</dim>
				</port>
				<port id="1" precision="FP32">
					<dim>1</dim>
					<dim>24</dim>
					<dim>1</dim>
					<dim>1</dim>
					<dim>1</dim>
				</port>
			</input>
			<output>
				<port id="2" precision="FP32" names="364,365">
					<dim>1</dim>
					<dim>24</dim>
					<dim>8</dim>
					<dim>56</dim>
					<dim>56</dim>
				</port>
			</output>
		</layer>
		<layer id="48" name="AveragePool_23" type="AvgPool" version="opset1">
			<data kernel="2, 1, 1" strides="2, 1, 1" pads_begin="0, 0, 0" pads_end="0, 0, 0" exclude-pad="true" auto_pad="explicit" rounding_type="floor" />
			<input>
				<port id="0" precision="FP32">
					<dim>1</dim>
					<dim>24</dim>
					<dim>8</dim>
					<dim>56</dim>
					<dim>56</dim>
				</port>
			</input>
			<output>
				<port id="1" precision="FP32" names="366">
					<dim>1</dim>
					<dim>24</dim>
					<dim>4</dim>
					<dim>56</dim>
					<dim>56</dim>
				</port>
			</output>
		</layer>
		<layer id="49" name="Multiply_8256_compressed" type="Const" version="opset1">
			<data element_type="f16" shape="72, 24, 1, 1, 1" offset="16540" size="3456" />
			<output>
				<port id="0" precision="FP16">
					<dim>72</dim>
					<dim>24</dim>
					<dim>1</dim>
					<dim>1</dim>
					<dim>1</dim>
				</port>
			</output>
		</layer>
		<layer id="50" name="Multiply_8256" type="Convert" version="opset1">
			<data destination_type="f32" />
			<rt_info>
				<attribute name="decompression" version="0" />
			</rt_info>
			<input>
				<port id="0" precision="FP16">
					<dim>72</dim>
					<dim>24</dim>
					<dim>1</dim>
					<dim>1</dim>
					<dim>1</dim>
				</port>
			</input>
			<output>
				<port id="1" precision="FP32">
					<dim>72</dim>
					<dim>24</dim>
					<dim>1</dim>
					<dim>1</dim>
					<dim>1</dim>
				</port>
			</output>
		</layer>
		<layer id="51" name="Multiply_7903" type="Convolution" version="opset1">
			<data strides="1, 1, 1" dilations="1, 1, 1" pads_begin="0, 0, 0" pads_end="0, 0, 0" auto_pad="explicit" />
			<input>
				<port id="0" precision="FP32">
					<dim>1</dim>
					<dim>24</dim>
					<dim>4</dim>
					<dim>56</dim>
					<dim>56</dim>
				</port>
				<port id="1" precision="FP32">
					<dim>72</dim>
					<dim>24</dim>
					<dim>1</dim>
					<dim>1</dim>
					<dim>1</dim>
				</port>
			</input>
			<output>
				<port id="2" precision="FP32">
					<dim>1</dim>
					<dim>72</dim>
					<dim>4</dim>
					<dim>56</dim>
					<dim>56</dim>
				</port>
			</output>
		</layer>
		<layer id="52" name="Constant_7908_compressed" type="Const" version="opset1">
			<data element_type="f16" shape="1, 72, 1, 1, 1" offset="19996" size="144" />
			<output>
				<port id="0" precision="FP16">
					<dim>1</dim>
					<dim>72</dim>
					<dim>1</dim>
					<dim>1</dim>
					<dim>1</dim>
				</port>
			</output>
		</layer>
		<layer id="53" name="Constant_7908" type="Convert" version="opset1">
			<data destination_type="f32" />
			<rt_info>
				<attribute name="decompression" version="0" />
			</rt_info>
			<input>
				<port id="0" precision="FP16">
					<dim>1</dim>
					<dim>72</dim>
					<dim>1</dim>
					<dim>1</dim>
					<dim>1</dim>
				</port>
			</input>
			<output>
				<port id="1" precision="FP32">
					<dim>1</dim>
					<dim>72</dim>
					<dim>1</dim>
					<dim>1</dim>
					<dim>1</dim>
				</port>
			</output>
		</layer>
		<layer id="54" name="BatchNormalization_25" type="Add" version="opset1">
			<data auto_broadcast="numpy" />
			<input>
				<port id="0" precision="FP32">
					<dim>1</dim>
					<dim>72</dim>
					<dim>4</dim>
					<dim>56</dim>
					<dim>56</dim>
				</port>
				<port id="1" precision="FP32">
					<dim>1</dim>
					<dim>72</dim>
					<dim>1</dim>
					<dim>1</dim>
					<dim>1</dim>
				</port>
			</input>
			<output>
				<port id="2" precision="FP32" names="368">
					<dim>1</dim>
					<dim>72</dim>
					<dim>4</dim>
					<dim>56</dim>
					<dim>56</dim>
				</port>
			</output>
		</layer>
		<layer id="55" name="Relu_26" type="ReLU" version="opset1">
			<input>
				<port id="0" precision="FP32">
					<dim>1</dim>
					<dim>72</dim>
					<dim>4</dim>
					<dim>56</dim>
					<dim>56</dim>
				</port>
			</input>
			<output>
				<port id="1" precision="FP32" names="369">
					<dim>1</dim>
					<dim>72</dim>
					<dim>4</dim>
					<dim>56</dim>
					<dim>56</dim>
				</port>
			</output>
		</layer>
		<layer id="56" name="Multiply_8262_compressed" type="Const" version="opset1">
			<data element_type="f16" shape="72, 1, 1, 1, 3, 3" offset="20140" size="1296" />
			<output>
				<port id="0" precision="FP16">
					<dim>72</dim>
					<dim>1</dim>
					<dim>1</dim>
					<dim>1</dim>
					<dim>3</dim>
					<dim>3</dim>
				</port>
			</output>
		</layer>
		<layer id="57" name="Multiply_8262" type="Convert" version="opset1">
			<data destination_type="f32" />
			<rt_info>
				<attribute name="decompression" version="0" />
			</rt_info>
			<input>
				<port id="0" precision="FP16">
					<dim>72</dim>
					<dim>1</dim>
					<dim>1</dim>
					<dim>1</dim>
					<dim>3</dim>
					<dim>3</dim>
				</port>
			</input>
			<output>
				<port id="1" precision="FP32">
					<dim>72</dim>
					<dim>1</dim>
					<dim>1</dim>
					<dim>1</dim>
					<dim>3</dim>
					<dim>3</dim>
				</port>
			</output>
		</layer>
		<layer id="58" name="Multiply_7910" type="GroupConvolution" version="opset1">
			<data strides="1, 1, 1" pads_begin="0, 1, 1" pads_end="0, 1, 1" dilations="1, 1, 1" auto_pad="explicit" />
			<input>
				<port id="0" precision="FP32">
					<dim>1</dim>
					<dim>72</dim>
					<dim>4</dim>
					<dim>56</dim>
					<dim>56</dim>
				</port>
				<port id="1" precision="FP32">
					<dim>72</dim>
					<dim>1</dim>
					<dim>1</dim>
					<dim>1</dim>
					<dim>3</dim>
					<dim>3</dim>
				</port>
			</input>
			<output>
				<port id="2" precision="FP32" names="370">
					<dim>1</dim>
					<dim>72</dim>
					<dim>4</dim>
					<dim>56</dim>
					<dim>56</dim>
				</port>
			</output>
		</layer>
		<layer id="59" name="Constant_7915_compressed" type="Const" version="opset1">
			<data element_type="f16" shape="1, 72, 1, 1, 1" offset="21436" size="144" />
			<output>
				<port id="0" precision="FP16">
					<dim>1</dim>
					<dim>72</dim>
					<dim>1</dim>
					<dim>1</dim>
					<dim>1</dim>
				</port>
			</output>
		</layer>
		<layer id="60" name="Constant_7915" type="Convert" version="opset1">
			<data destination_type="f32" />
			<rt_info>
				<attribute name="decompression" version="0" />
			</rt_info>
			<input>
				<port id="0" precision="FP16">
					<dim>1</dim>
					<dim>72</dim>
					<dim>1</dim>
					<dim>1</dim>
					<dim>1</dim>
				</port>
			</input>
			<output>
				<port id="1" precision="FP32">
					<dim>1</dim>
					<dim>72</dim>
					<dim>1</dim>
					<dim>1</dim>
					<dim>1</dim>
				</port>
			</output>
		</layer>
		<layer id="61" name="BatchNormalization_28" type="Add" version="opset1">
			<data auto_broadcast="numpy" />
			<input>
				<port id="0" precision="FP32">
					<dim>1</dim>
					<dim>72</dim>
					<dim>4</dim>
					<dim>56</dim>
					<dim>56</dim>
				</port>
				<port id="1" precision="FP32">
					<dim>1</dim>
					<dim>72</dim>
					<dim>1</dim>
					<dim>1</dim>
					<dim>1</dim>
				</port>
			</input>
			<output>
				<port id="2" precision="FP32" names="371">
					<dim>1</dim>
					<dim>72</dim>
					<dim>4</dim>
					<dim>56</dim>
					<dim>56</dim>
				</port>
			</output>
		</layer>
		<layer id="62" name="Relu_29" type="ReLU" version="opset1">
			<input>
				<port id="0" precision="FP32">
					<dim>1</dim>
					<dim>72</dim>
					<dim>4</dim>
					<dim>56</dim>
					<dim>56</dim>
				</port>
			</input>
			<output>
				<port id="1" precision="FP32" names="372">
					<dim>1</dim>
					<dim>72</dim>
					<dim>4</dim>
					<dim>56</dim>
					<dim>56</dim>
				</port>
			</output>
		</layer>
		<layer id="63" name="Multiply_8267_compressed" type="Const" version="opset1">
			<data element_type="f16" shape="24, 72, 3, 1, 1" offset="21580" size="10368" />
			<output>
				<port id="0" precision="FP16">
					<dim>24</dim>
					<dim>72</dim>
					<dim>3</dim>
					<dim>1</dim>
					<dim>1</dim>
				</port>
			</output>
		</layer>
		<layer id="64" name="Multiply_8267" type="Convert" version="opset1">
			<data destination_type="f32" />
			<rt_info>
				<attribute name="decompression" version="0" />
			</rt_info>
			<input>
				<port id="0" precision="FP16">
					<dim>24</dim>
					<dim>72</dim>
					<dim>3</dim>
					<dim>1</dim>
					<dim>1</dim>
				</port>
			</input>
			<output>
				<port id="1" precision="FP32">
					<dim>24</dim>
					<dim>72</dim>
					<dim>3</dim>
					<dim>1</dim>
					<dim>1</dim>
				</port>
			</output>
		</layer>
		<layer id="65" name="Multiply_7917" type="Convolution" version="opset1">
			<data strides="1, 1, 1" dilations="1, 1, 1" pads_begin="1, 0, 0" pads_end="1, 0, 0" auto_pad="explicit" />
			<input>
				<port id="0" precision="FP32">
					<dim>1</dim>
					<dim>72</dim>
					<dim>4</dim>
					<dim>56</dim>
					<dim>56</dim>
				</port>
				<port id="1" precision="FP32">
					<dim>24</dim>
					<dim>72</dim>
					<dim>3</dim>
					<dim>1</dim>
					<dim>1</dim>
				</port>
			</input>
			<output>
				<port id="2" precision="FP32">
					<dim>1</dim>
					<dim>24</dim>
					<dim>4</dim>
					<dim>56</dim>
					<dim>56</dim>
				</port>
			</output>
		</layer>
		<layer id="66" name="Constant_7922_compressed" type="Const" version="opset1">
			<data element_type="f16" shape="1, 24, 1, 1, 1" offset="31948" size="48" />
			<output>
				<port id="0" precision="FP16">
					<dim>1</dim>
					<dim>24</dim>
					<dim>1</dim>
					<dim>1</dim>
					<dim>1</dim>
				</port>
			</output>
		</layer>
		<layer id="67" name="Constant_7922" type="Convert" version="opset1">
			<data destination_type="f32" />
			<rt_info>
				<attribute name="decompression" version="0" />
			</rt_info>
			<input>
				<port id="0" precision="FP16">
					<dim>1</dim>
					<dim>24</dim>
					<dim>1</dim>
					<dim>1</dim>
					<dim>1</dim>
				</port>
			</input>
			<output>
				<port id="1" precision="FP32">
					<dim>1</dim>
					<dim>24</dim>
					<dim>1</dim>
					<dim>1</dim>
					<dim>1</dim>
				</port>
			</output>
		</layer>
		<layer id="68" name="BatchNormalization_31" type="Add" version="opset1">
			<data auto_broadcast="numpy" />
			<input>
				<port id="0" precision="FP32">
					<dim>1</dim>
					<dim>24</dim>
					<dim>4</dim>
					<dim>56</dim>
					<dim>56</dim>
				</port>
				<port id="1" precision="FP32">
					<dim>1</dim>
					<dim>24</dim>
					<dim>1</dim>
					<dim>1</dim>
					<dim>1</dim>
				</port>
			</input>
			<output>
				<port id="2" precision="FP32" names="374">
					<dim>1</dim>
					<dim>24</dim>
					<dim>4</dim>
					<dim>56</dim>
					<dim>56</dim>
				</port>
			</output>
		</layer>
		<layer id="69" name="Add_32" type="Add" version="opset1">
			<data auto_broadcast="numpy" />
			<input>
				<port id="0" precision="FP32">
					<dim>1</dim>
					<dim>24</dim>
					<dim>4</dim>
					<dim>56</dim>
					<dim>56</dim>
				</port>
				<port id="1" precision="FP32">
					<dim>1</dim>
					<dim>24</dim>
					<dim>4</dim>
					<dim>56</dim>
					<dim>56</dim>
				</port>
			</input>
			<output>
				<port id="2" precision="FP32" names="375">
					<dim>1</dim>
					<dim>24</dim>
					<dim>4</dim>
					<dim>56</dim>
					<dim>56</dim>
				</port>
			</output>
		</layer>
		<layer id="70" name="Multiply_8273_compressed" type="Const" version="opset1">
			<data element_type="f16" shape="72, 24, 1, 1, 1" offset="31996" size="3456" />
			<output>
				<port id="0" precision="FP16">
					<dim>72</dim>
					<dim>24</dim>
					<dim>1</dim>
					<dim>1</dim>
					<dim>1</dim>
				</port>
			</output>
		</layer>
		<layer id="71" name="Multiply_8273" type="Convert" version="opset1">
			<data destination_type="f32" />
			<rt_info>
				<attribute name="decompression" version="0" />
			</rt_info>
			<input>
				<port id="0" precision="FP16">
					<dim>72</dim>
					<dim>24</dim>
					<dim>1</dim>
					<dim>1</dim>
					<dim>1</dim>
				</port>
			</input>
			<output>
				<port id="1" precision="FP32">
					<dim>72</dim>
					<dim>24</dim>
					<dim>1</dim>
					<dim>1</dim>
					<dim>1</dim>
				</port>
			</output>
		</layer>
		<layer id="72" name="Multiply_7924" type="Convolution" version="opset1">
			<data strides="1, 1, 1" dilations="1, 1, 1" pads_begin="0, 0, 0" pads_end="0, 0, 0" auto_pad="explicit" />
			<input>
				<port id="0" precision="FP32">
					<dim>1</dim>
					<dim>24</dim>
					<dim>4</dim>
					<dim>56</dim>
					<dim>56</dim>
				</port>
				<port id="1" precision="FP32">
					<dim>72</dim>
					<dim>24</dim>
					<dim>1</dim>
					<dim>1</dim>
					<dim>1</dim>
				</port>
			</input>
			<output>
				<port id="2" precision="FP32">
					<dim>1</dim>
					<dim>72</dim>
					<dim>4</dim>
					<dim>56</dim>
					<dim>56</dim>
				</port>
			</output>
		</layer>
		<layer id="73" name="Constant_7929_compressed" type="Const" version="opset1">
			<data element_type="f16" shape="1, 72, 1, 1, 1" offset="35452" size="144" />
			<output>
				<port id="0" precision="FP16">
					<dim>1</dim>
					<dim>72</dim>
					<dim>1</dim>
					<dim>1</dim>
					<dim>1</dim>
				</port>
			</output>
		</layer>
		<layer id="74" name="Constant_7929" type="Convert" version="opset1">
			<data destination_type="f32" />
			<rt_info>
				<attribute name="decompression" version="0" />
			</rt_info>
			<input>
				<port id="0" precision="FP16">
					<dim>1</dim>
					<dim>72</dim>
					<dim>1</dim>
					<dim>1</dim>
					<dim>1</dim>
				</port>
			</input>
			<output>
				<port id="1" precision="FP32">
					<dim>1</dim>
					<dim>72</dim>
					<dim>1</dim>
					<dim>1</dim>
					<dim>1</dim>
				</port>
			</output>
		</layer>
		<layer id="75" name="BatchNormalization_34" type="Add" version="opset1">
			<data auto_broadcast="numpy" />
			<input>
				<port id="0" precision="FP32">
					<dim>1</dim>
					<dim>72</dim>
					<dim>4</dim>
					<dim>56</dim>
					<dim>56</dim>
				</port>
				<port id="1" precision="FP32">
					<dim>1</dim>
					<dim>72</dim>
					<dim>1</dim>
					<dim>1</dim>
					<dim>1</dim>
				</port>
			</input>
			<output>
				<port id="2" precision="FP32" names="377">
					<dim>1</dim>
					<dim>72</dim>
					<dim>4</dim>
					<dim>56</dim>
					<dim>56</dim>
				</port>
			</output>
		</layer>
		<layer id="76" name="Relu_35" type="ReLU" version="opset1">
			<input>
				<port id="0" precision="FP32">
					<dim>1</dim>
					<dim>72</dim>
					<dim>4</dim>
					<dim>56</dim>
					<dim>56</dim>
				</port>
			</input>
			<output>
				<port id="1" precision="FP32" names="378">
					<dim>1</dim>
					<dim>72</dim>
					<dim>4</dim>
					<dim>56</dim>
					<dim>56</dim>
				</port>
			</output>
		</layer>
		<layer id="77" name="Multiply_8279_compressed" type="Const" version="opset1">
			<data element_type="f16" shape="72, 1, 1, 1, 5, 5" offset="35596" size="3600" />
			<output>
				<port id="0" precision="FP16">
					<dim>72</dim>
					<dim>1</dim>
					<dim>1</dim>
					<dim>1</dim>
					<dim>5</dim>
					<dim>5</dim>
				</port>
			</output>
		</layer>
		<layer id="78" name="Multiply_8279" type="Convert" version="opset1">
			<data destination_type="f32" />
			<rt_info>
				<attribute name="decompression" version="0" />
			</rt_info>
			<input>
				<port id="0" precision="FP16">
					<dim>72</dim>
					<dim>1</dim>
					<dim>1</dim>
					<dim>1</dim>
					<dim>5</dim>
					<dim>5</dim>
				</port>
			</input>
			<output>
				<port id="1" precision="FP32">
					<dim>72</dim>
					<dim>1</dim>
					<dim>1</dim>
					<dim>1</dim>
					<dim>5</dim>
					<dim>5</dim>
				</port>
			</output>
		</layer>
		<layer id="79" name="Multiply_7931" type="GroupConvolution" version="opset1">
			<data strides="1, 2, 2" pads_begin="0, 2, 2" pads_end="0, 2, 2" dilations="1, 1, 1" auto_pad="explicit" />
			<input>
				<port id="0" precision="FP32">
					<dim>1</dim>
					<dim>72</dim>
					<dim>4</dim>
					<dim>56</dim>
					<dim>56</dim>
				</port>
				<port id="1" precision="FP32">
					<dim>72</dim>
					<dim>1</dim>
					<dim>1</dim>
					<dim>1</dim>
					<dim>5</dim>
					<dim>5</dim>
				</port>
			</input>
			<output>
				<port id="2" precision="FP32" names="379">
					<dim>1</dim>
					<dim>72</dim>
					<dim>4</dim>
					<dim>28</dim>
					<dim>28</dim>
				</port>
			</output>
		</layer>
		<layer id="80" name="Constant_7936_compressed" type="Const" version="opset1">
			<data element_type="f16" shape="1, 72, 1, 1, 1" offset="39196" size="144" />
			<output>
				<port id="0" precision="FP16">
					<dim>1</dim>
					<dim>72</dim>
					<dim>1</dim>
					<dim>1</dim>
					<dim>1</dim>
				</port>
			</output>
		</layer>
		<layer id="81" name="Constant_7936" type="Convert" version="opset1">
			<data destination_type="f32" />
			<rt_info>
				<attribute name="decompression" version="0" />
			</rt_info>
			<input>
				<port id="0" precision="FP16">
					<dim>1</dim>
					<dim>72</dim>
					<dim>1</dim>
					<dim>1</dim>
					<dim>1</dim>
				</port>
			</input>
			<output>
				<port id="1" precision="FP32">
					<dim>1</dim>
					<dim>72</dim>
					<dim>1</dim>
					<dim>1</dim>
					<dim>1</dim>
				</port>
			</output>
		</layer>
		<layer id="82" name="BatchNormalization_37" type="Add" version="opset1">
			<data auto_broadcast="numpy" />
			<input>
				<port id="0" precision="FP32">
					<dim>1</dim>
					<dim>72</dim>
					<dim>4</dim>
					<dim>28</dim>
					<dim>28</dim>
				</port>
				<port id="1" precision="FP32">
					<dim>1</dim>
					<dim>72</dim>
					<dim>1</dim>
					<dim>1</dim>
					<dim>1</dim>
				</port>
			</input>
			<output>
				<port id="2" precision="FP32" names="380,381">
					<dim>1</dim>
					<dim>72</dim>
					<dim>4</dim>
					<dim>28</dim>
					<dim>28</dim>
				</port>
			</output>
		</layer>
		<layer id="83" name="AveragePool_39" type="AvgPool" version="opset1">
			<data kernel="1, 28, 28" strides="1, 1, 1" pads_begin="0, 0, 0" pads_end="0, 0, 0" exclude-pad="true" auto_pad="explicit" rounding_type="floor" />
			<input>
				<port id="0" precision="FP32">
					<dim>1</dim>
					<dim>72</dim>
					<dim>4</dim>
					<dim>28</dim>
					<dim>28</dim>
				</port>
			</input>
			<output>
				<port id="1" precision="FP32" names="382">
					<dim>1</dim>
					<dim>72</dim>
					<dim>4</dim>
					<dim>1</dim>
					<dim>1</dim>
				</port>
			</output>
		</layer>
		<layer id="84" name="backbone.features.4.conv.5.fc.0.weight_compressed" type="Const" version="opset1">
			<data element_type="f16" shape="18, 72, 1, 1, 1" offset="39340" size="2592" />
			<output>
				<port id="0" precision="FP16">
					<dim>18</dim>
					<dim>72</dim>
					<dim>1</dim>
					<dim>1</dim>
					<dim>1</dim>
				</port>
			</output>
		</layer>
		<layer id="85" name="backbone.features.4.conv.5.fc.0.weight" type="Convert" version="opset1">
			<data destination_type="f32" />
			<rt_info>
				<attribute name="decompression" version="0" />
			</rt_info>
			<input>
				<port id="0" precision="FP16">
					<dim>18</dim>
					<dim>72</dim>
					<dim>1</dim>
					<dim>1</dim>
					<dim>1</dim>
				</port>
			</input>
			<output>
				<port id="1" precision="FP32" names="backbone.features.4.conv.5.fc.0.weight">
					<dim>18</dim>
					<dim>72</dim>
					<dim>1</dim>
					<dim>1</dim>
					<dim>1</dim>
				</port>
			</output>
		</layer>
		<layer id="86" name="Conv_40/WithoutBiases" type="Convolution" version="opset1">
			<data strides="1, 1, 1" dilations="1, 1, 1" pads_begin="0, 0, 0" pads_end="0, 0, 0" auto_pad="explicit" />
			<input>
				<port id="0" precision="FP32">
					<dim>1</dim>
					<dim>72</dim>
					<dim>4</dim>
					<dim>1</dim>
					<dim>1</dim>
				</port>
				<port id="1" precision="FP32">
					<dim>18</dim>
					<dim>72</dim>
					<dim>1</dim>
					<dim>1</dim>
					<dim>1</dim>
				</port>
			</input>
			<output>
				<port id="2" precision="FP32">
					<dim>1</dim>
					<dim>18</dim>
					<dim>4</dim>
					<dim>1</dim>
					<dim>1</dim>
				</port>
			</output>
		</layer>
		<layer id="87" name="Reshape_550_compressed" type="Const" version="opset1">
			<data element_type="f16" shape="1, 18, 1, 1, 1" offset="41932" size="36" />
			<output>
				<port id="0" precision="FP16">
					<dim>1</dim>
					<dim>18</dim>
					<dim>1</dim>
					<dim>1</dim>
					<dim>1</dim>
				</port>
			</output>
		</layer>
		<layer id="88" name="Reshape_550" type="Convert" version="opset1">
			<data destination_type="f32" />
			<rt_info>
				<attribute name="decompression" version="0" />
			</rt_info>
			<input>
				<port id="0" precision="FP16">
					<dim>1</dim>
					<dim>18</dim>
					<dim>1</dim>
					<dim>1</dim>
					<dim>1</dim>
				</port>
			</input>
			<output>
				<port id="1" precision="FP32">
					<dim>1</dim>
					<dim>18</dim>
					<dim>1</dim>
					<dim>1</dim>
					<dim>1</dim>
				</port>
			</output>
		</layer>
		<layer id="89" name="Conv_40" type="Add" version="opset1">
			<data auto_broadcast="numpy" />
			<input>
				<port id="0" precision="FP32">
					<dim>1</dim>
					<dim>18</dim>
					<dim>4</dim>
					<dim>1</dim>
					<dim>1</dim>
				</port>
				<port id="1" precision="FP32">
					<dim>1</dim>
					<dim>18</dim>
					<dim>1</dim>
					<dim>1</dim>
					<dim>1</dim>
				</port>
			</input>
			<output>
				<port id="2" precision="FP32" names="383">
					<dim>1</dim>
					<dim>18</dim>
					<dim>4</dim>
					<dim>1</dim>
					<dim>1</dim>
				</port>
			</output>
		</layer>
		<layer id="90" name="Relu_41" type="ReLU" version="opset1">
			<input>
				<port id="0" precision="FP32">
					<dim>1</dim>
					<dim>18</dim>
					<dim>4</dim>
					<dim>1</dim>
					<dim>1</dim>
				</port>
			</input>
			<output>
				<port id="1" precision="FP32" names="384">
					<dim>1</dim>
					<dim>18</dim>
					<dim>4</dim>
					<dim>1</dim>
					<dim>1</dim>
				</port>
			</output>
		</layer>
		<layer id="91" name="backbone.features.4.conv.5.fc.2.weight_compressed" type="Const" version="opset1">
			<data element_type="f16" shape="72, 18, 1, 1, 1" offset="41968" size="2592" />
			<output>
				<port id="0" precision="FP16">
					<dim>72</dim>
					<dim>18</dim>
					<dim>1</dim>
					<dim>1</dim>
					<dim>1</dim>
				</port>
			</output>
		</layer>
		<layer id="92" name="backbone.features.4.conv.5.fc.2.weight" type="Convert" version="opset1">
			<data destination_type="f32" />
			<rt_info>
				<attribute name="decompression" version="0" />
			</rt_info>
			<input>
				<port id="0" precision="FP16">
					<dim>72</dim>
					<dim>18</dim>
					<dim>1</dim>
					<dim>1</dim>
					<dim>1</dim>
				</port>
			</input>
			<output>
				<port id="1" precision="FP32" names="backbone.features.4.conv.5.fc.2.weight">
					<dim>72</dim>
					<dim>18</dim>
					<dim>1</dim>
					<dim>1</dim>
					<dim>1</dim>
				</port>
			</output>
		</layer>
		<layer id="93" name="Conv_42/WithoutBiases" type="Convolution" version="opset1">
			<data strides="1, 1, 1" dilations="1, 1, 1" pads_begin="0, 0, 0" pads_end="0, 0, 0" auto_pad="explicit" />
			<input>
				<port id="0" precision="FP32">
					<dim>1</dim>
					<dim>18</dim>
					<dim>4</dim>
					<dim>1</dim>
					<dim>1</dim>
				</port>
				<port id="1" precision="FP32">
					<dim>72</dim>
					<dim>18</dim>
					<dim>1</dim>
					<dim>1</dim>
					<dim>1</dim>
				</port>
			</input>
			<output>
				<port id="2" precision="FP32">
					<dim>1</dim>
					<dim>72</dim>
					<dim>4</dim>
					<dim>1</dim>
					<dim>1</dim>
				</port>
			</output>
		</layer>
		<layer id="94" name="Reshape_566_compressed" type="Const" version="opset1">
			<data element_type="f16" shape="1, 72, 1, 1, 1" offset="44560" size="144" />
			<output>
				<port id="0" precision="FP16">
					<dim>1</dim>
					<dim>72</dim>
					<dim>1</dim>
					<dim>1</dim>
					<dim>1</dim>
				</port>
			</output>
		</layer>
		<layer id="95" name="Reshape_566" type="Convert" version="opset1">
			<data destination_type="f32" />
			<rt_info>
				<attribute name="decompression" version="0" />
			</rt_info>
			<input>
				<port id="0" precision="FP16">
					<dim>1</dim>
					<dim>72</dim>
					<dim>1</dim>
					<dim>1</dim>
					<dim>1</dim>
				</port>
			</input>
			<output>
				<port id="1" precision="FP32">
					<dim>1</dim>
					<dim>72</dim>
					<dim>1</dim>
					<dim>1</dim>
					<dim>1</dim>
				</port>
			</output>
		</layer>
		<layer id="96" name="Conv_42" type="Add" version="opset1">
			<data auto_broadcast="numpy" />
			<input>
				<port id="0" precision="FP32">
					<dim>1</dim>
					<dim>72</dim>
					<dim>4</dim>
					<dim>1</dim>
					<dim>1</dim>
				</port>
				<port id="1" precision="FP32">
					<dim>1</dim>
					<dim>72</dim>
					<dim>1</dim>
					<dim>1</dim>
					<dim>1</dim>
				</port>
			</input>
			<output>
				<port id="2" precision="FP32" names="385">
					<dim>1</dim>
					<dim>72</dim>
					<dim>4</dim>
					<dim>1</dim>
					<dim>1</dim>
				</port>
			</output>
		</layer>
		<layer id="97" name="Div_47" type="HSigmoid" version="opset5">
			<input>
				<port id="0" precision="FP32">
					<dim>1</dim>
					<dim>72</dim>
					<dim>4</dim>
					<dim>1</dim>
					<dim>1</dim>
				</port>
			</input>
			<output>
				<port id="1" precision="FP32" names="390">
					<dim>1</dim>
					<dim>72</dim>
					<dim>4</dim>
					<dim>1</dim>
					<dim>1</dim>
				</port>
			</output>
		</layer>
		<layer id="98" name="Mul_48" type="Multiply" version="opset1">
			<data auto_broadcast="numpy" />
			<input>
				<port id="0" precision="FP32">
					<dim>1</dim>
					<dim>72</dim>
					<dim>4</dim>
					<dim>1</dim>
					<dim>1</dim>
				</port>
				<port id="1" precision="FP32">
					<dim>1</dim>
					<dim>72</dim>
					<dim>4</dim>
					<dim>28</dim>
					<dim>28</dim>
				</port>
			</input>
			<output>
				<port id="2" precision="FP32" names="391">
					<dim>1</dim>
					<dim>72</dim>
					<dim>4</dim>
					<dim>28</dim>
					<dim>28</dim>
				</port>
			</output>
		</layer>
		<layer id="99" name="Relu_49" type="ReLU" version="opset1">
			<input>
				<port id="0" precision="FP32">
					<dim>1</dim>
					<dim>72</dim>
					<dim>4</dim>
					<dim>28</dim>
					<dim>28</dim>
				</port>
			</input>
			<output>
				<port id="1" precision="FP32" names="392">
					<dim>1</dim>
					<dim>72</dim>
					<dim>4</dim>
					<dim>28</dim>
					<dim>28</dim>
				</port>
			</output>
		</layer>
		<layer id="100" name="Multiply_8284_compressed" type="Const" version="opset1">
			<data element_type="f16" shape="40, 72, 3, 1, 1" offset="44704" size="17280" />
			<output>
				<port id="0" precision="FP16">
					<dim>40</dim>
					<dim>72</dim>
					<dim>3</dim>
					<dim>1</dim>
					<dim>1</dim>
				</port>
			</output>
		</layer>
		<layer id="101" name="Multiply_8284" type="Convert" version="opset1">
			<data destination_type="f32" />
			<rt_info>
				<attribute name="decompression" version="0" />
			</rt_info>
			<input>
				<port id="0" precision="FP16">
					<dim>40</dim>
					<dim>72</dim>
					<dim>3</dim>
					<dim>1</dim>
					<dim>1</dim>
				</port>
			</input>
			<output>
				<port id="1" precision="FP32">
					<dim>40</dim>
					<dim>72</dim>
					<dim>3</dim>
					<dim>1</dim>
					<dim>1</dim>
				</port>
			</output>
		</layer>
		<layer id="102" name="Multiply_7938" type="Convolution" version="opset1">
			<data strides="1, 1, 1" dilations="1, 1, 1" pads_begin="1, 0, 0" pads_end="1, 0, 0" auto_pad="explicit" />
			<input>
				<port id="0" precision="FP32">
					<dim>1</dim>
					<dim>72</dim>
					<dim>4</dim>
					<dim>28</dim>
					<dim>28</dim>
				</port>
				<port id="1" precision="FP32">
					<dim>40</dim>
					<dim>72</dim>
					<dim>3</dim>
					<dim>1</dim>
					<dim>1</dim>
				</port>
			</input>
			<output>
				<port id="2" precision="FP32">
					<dim>1</dim>
					<dim>40</dim>
					<dim>4</dim>
					<dim>28</dim>
					<dim>28</dim>
				</port>
			</output>
		</layer>
		<layer id="103" name="Constant_7943_compressed" type="Const" version="opset1">
			<data element_type="f16" shape="1, 40, 1, 1, 1" offset="61984" size="80" />
			<output>
				<port id="0" precision="FP16">
					<dim>1</dim>
					<dim>40</dim>
					<dim>1</dim>
					<dim>1</dim>
					<dim>1</dim>
				</port>
			</output>
		</layer>
		<layer id="104" name="Constant_7943" type="Convert" version="opset1">
			<data destination_type="f32" />
			<rt_info>
				<attribute name="decompression" version="0" />
			</rt_info>
			<input>
				<port id="0" precision="FP16">
					<dim>1</dim>
					<dim>40</dim>
					<dim>1</dim>
					<dim>1</dim>
					<dim>1</dim>
				</port>
			</input>
			<output>
				<port id="1" precision="FP32">
					<dim>1</dim>
					<dim>40</dim>
					<dim>1</dim>
					<dim>1</dim>
					<dim>1</dim>
				</port>
			</output>
		</layer>
		<layer id="105" name="BatchNormalization_51" type="Add" version="opset1">
			<data auto_broadcast="numpy" />
			<input>
				<port id="0" precision="FP32">
					<dim>1</dim>
					<dim>40</dim>
					<dim>4</dim>
					<dim>28</dim>
					<dim>28</dim>
				</port>
				<port id="1" precision="FP32">
					<dim>1</dim>
					<dim>40</dim>
					<dim>1</dim>
					<dim>1</dim>
					<dim>1</dim>
				</port>
			</input>
			<output>
				<port id="2" precision="FP32" names="394">
					<dim>1</dim>
					<dim>40</dim>
					<dim>4</dim>
					<dim>28</dim>
					<dim>28</dim>
				</port>
			</output>
		</layer>
		<layer id="106" name="Multiply_8290_compressed" type="Const" version="opset1">
			<data element_type="f16" shape="120, 40, 1, 1, 1" offset="62064" size="9600" />
			<output>
				<port id="0" precision="FP16">
					<dim>120</dim>
					<dim>40</dim>
					<dim>1</dim>
					<dim>1</dim>
					<dim>1</dim>
				</port>
			</output>
		</layer>
		<layer id="107" name="Multiply_8290" type="Convert" version="opset1">
			<data destination_type="f32" />
			<rt_info>
				<attribute name="decompression" version="0" />
			</rt_info>
			<input>
				<port id="0" precision="FP16">
					<dim>120</dim>
					<dim>40</dim>
					<dim>1</dim>
					<dim>1</dim>
					<dim>1</dim>
				</port>
			</input>
			<output>
				<port id="1" precision="FP32">
					<dim>120</dim>
					<dim>40</dim>
					<dim>1</dim>
					<dim>1</dim>
					<dim>1</dim>
				</port>
			</output>
		</layer>
		<layer id="108" name="Multiply_7945" type="Convolution" version="opset1">
			<data strides="1, 1, 1" dilations="1, 1, 1" pads_begin="0, 0, 0" pads_end="0, 0, 0" auto_pad="explicit" />
			<input>
				<port id="0" precision="FP32">
					<dim>1</dim>
					<dim>40</dim>
					<dim>4</dim>
					<dim>28</dim>
					<dim>28</dim>
				</port>
				<port id="1" precision="FP32">
					<dim>120</dim>
					<dim>40</dim>
					<dim>1</dim>
					<dim>1</dim>
					<dim>1</dim>
				</port>
			</input>
			<output>
				<port id="2" precision="FP32">
					<dim>1</dim>
					<dim>120</dim>
					<dim>4</dim>
					<dim>28</dim>
					<dim>28</dim>
				</port>
			</output>
		</layer>
		<layer id="109" name="Constant_7950_compressed" type="Const" version="opset1">
			<data element_type="f16" shape="1, 120, 1, 1, 1" offset="71664" size="240" />
			<output>
				<port id="0" precision="FP16">
					<dim>1</dim>
					<dim>120</dim>
					<dim>1</dim>
					<dim>1</dim>
					<dim>1</dim>
				</port>
			</output>
		</layer>
		<layer id="110" name="Constant_7950" type="Convert" version="opset1">
			<data destination_type="f32" />
			<rt_info>
				<attribute name="decompression" version="0" />
			</rt_info>
			<input>
				<port id="0" precision="FP16">
					<dim>1</dim>
					<dim>120</dim>
					<dim>1</dim>
					<dim>1</dim>
					<dim>1</dim>
				</port>
			</input>
			<output>
				<port id="1" precision="FP32">
					<dim>1</dim>
					<dim>120</dim>
					<dim>1</dim>
					<dim>1</dim>
					<dim>1</dim>
				</port>
			</output>
		</layer>
		<layer id="111" name="BatchNormalization_53" type="Add" version="opset1">
			<data auto_broadcast="numpy" />
			<input>
				<port id="0" precision="FP32">
					<dim>1</dim>
					<dim>120</dim>
					<dim>4</dim>
					<dim>28</dim>
					<dim>28</dim>
				</port>
				<port id="1" precision="FP32">
					<dim>1</dim>
					<dim>120</dim>
					<dim>1</dim>
					<dim>1</dim>
					<dim>1</dim>
				</port>
			</input>
			<output>
				<port id="2" precision="FP32" names="396">
					<dim>1</dim>
					<dim>120</dim>
					<dim>4</dim>
					<dim>28</dim>
					<dim>28</dim>
				</port>
			</output>
		</layer>
		<layer id="112" name="Relu_54" type="ReLU" version="opset1">
			<input>
				<port id="0" precision="FP32">
					<dim>1</dim>
					<dim>120</dim>
					<dim>4</dim>
					<dim>28</dim>
					<dim>28</dim>
				</port>
			</input>
			<output>
				<port id="1" precision="FP32" names="397">
					<dim>1</dim>
					<dim>120</dim>
					<dim>4</dim>
					<dim>28</dim>
					<dim>28</dim>
				</port>
			</output>
		</layer>
		<layer id="113" name="Multiply_8296_compressed" type="Const" version="opset1">
			<data element_type="f16" shape="120, 1, 1, 1, 5, 5" offset="71904" size="6000" />
			<output>
				<port id="0" precision="FP16">
					<dim>120</dim>
					<dim>1</dim>
					<dim>1</dim>
					<dim>1</dim>
					<dim>5</dim>
					<dim>5</dim>
				</port>
			</output>
		</layer>
		<layer id="114" name="Multiply_8296" type="Convert" version="opset1">
			<data destination_type="f32" />
			<rt_info>
				<attribute name="decompression" version="0" />
			</rt_info>
			<input>
				<port id="0" precision="FP16">
					<dim>120</dim>
					<dim>1</dim>
					<dim>1</dim>
					<dim>1</dim>
					<dim>5</dim>
					<dim>5</dim>
				</port>
			</input>
			<output>
				<port id="1" precision="FP32">
					<dim>120</dim>
					<dim>1</dim>
					<dim>1</dim>
					<dim>1</dim>
					<dim>5</dim>
					<dim>5</dim>
				</port>
			</output>
		</layer>
		<layer id="115" name="Multiply_7952" type="GroupConvolution" version="opset1">
			<data strides="1, 1, 1" pads_begin="0, 2, 2" pads_end="0, 2, 2" dilations="1, 1, 1" auto_pad="explicit" />
			<input>
				<port id="0" precision="FP32">
					<dim>1</dim>
					<dim>120</dim>
					<dim>4</dim>
					<dim>28</dim>
					<dim>28</dim>
				</port>
				<port id="1" precision="FP32">
					<dim>120</dim>
					<dim>1</dim>
					<dim>1</dim>
					<dim>1</dim>
					<dim>5</dim>
					<dim>5</dim>
				</port>
			</input>
			<output>
				<port id="2" precision="FP32" names="398">
					<dim>1</dim>
					<dim>120</dim>
					<dim>4</dim>
					<dim>28</dim>
					<dim>28</dim>
				</port>
			</output>
		</layer>
		<layer id="116" name="Constant_7957_compressed" type="Const" version="opset1">
			<data element_type="f16" shape="1, 120, 1, 1, 1" offset="77904" size="240" />
			<output>
				<port id="0" precision="FP16">
					<dim>1</dim>
					<dim>120</dim>
					<dim>1</dim>
					<dim>1</dim>
					<dim>1</dim>
				</port>
			</output>
		</layer>
		<layer id="117" name="Constant_7957" type="Convert" version="opset1">
			<data destination_type="f32" />
			<rt_info>
				<attribute name="decompression" version="0" />
			</rt_info>
			<input>
				<port id="0" precision="FP16">
					<dim>1</dim>
					<dim>120</dim>
					<dim>1</dim>
					<dim>1</dim>
					<dim>1</dim>
				</port>
			</input>
			<output>
				<port id="1" precision="FP32">
					<dim>1</dim>
					<dim>120</dim>
					<dim>1</dim>
					<dim>1</dim>
					<dim>1</dim>
				</port>
			</output>
		</layer>
		<layer id="118" name="BatchNormalization_56" type="Add" version="opset1">
			<data auto_broadcast="numpy" />
			<input>
				<port id="0" precision="FP32">
					<dim>1</dim>
					<dim>120</dim>
					<dim>4</dim>
					<dim>28</dim>
					<dim>28</dim>
				</port>
				<port id="1" precision="FP32">
					<dim>1</dim>
					<dim>120</dim>
					<dim>1</dim>
					<dim>1</dim>
					<dim>1</dim>
				</port>
			</input>
			<output>
				<port id="2" precision="FP32" names="399,400">
					<dim>1</dim>
					<dim>120</dim>
					<dim>4</dim>
					<dim>28</dim>
					<dim>28</dim>
				</port>
			</output>
		</layer>
		<layer id="119" name="AveragePool_58" type="AvgPool" version="opset1">
			<data kernel="1, 28, 28" strides="1, 1, 1" pads_begin="0, 0, 0" pads_end="0, 0, 0" exclude-pad="true" auto_pad="explicit" rounding_type="floor" />
			<input>
				<port id="0" precision="FP32">
					<dim>1</dim>
					<dim>120</dim>
					<dim>4</dim>
					<dim>28</dim>
					<dim>28</dim>
				</port>
			</input>
			<output>
				<port id="1" precision="FP32" names="401">
					<dim>1</dim>
					<dim>120</dim>
					<dim>4</dim>
					<dim>1</dim>
					<dim>1</dim>
				</port>
			</output>
		</layer>
		<layer id="120" name="backbone.features.5.conv.5.fc.0.weight_compressed" type="Const" version="opset1">
			<data element_type="f16" shape="30, 120, 1, 1, 1" offset="78144" size="7200" />
			<output>
				<port id="0" precision="FP16">
					<dim>30</dim>
					<dim>120</dim>
					<dim>1</dim>
					<dim>1</dim>
					<dim>1</dim>
				</port>
			</output>
		</layer>
		<layer id="121" name="backbone.features.5.conv.5.fc.0.weight" type="Convert" version="opset1">
			<data destination_type="f32" />
			<rt_info>
				<attribute name="decompression" version="0" />
			</rt_info>
			<input>
				<port id="0" precision="FP16">
					<dim>30</dim>
					<dim>120</dim>
					<dim>1</dim>
					<dim>1</dim>
					<dim>1</dim>
				</port>
			</input>
			<output>
				<port id="1" precision="FP32" names="backbone.features.5.conv.5.fc.0.weight">
					<dim>30</dim>
					<dim>120</dim>
					<dim>1</dim>
					<dim>1</dim>
					<dim>1</dim>
				</port>
			</output>
		</layer>
		<layer id="122" name="Conv_59/WithoutBiases" type="Convolution" version="opset1">
			<data strides="1, 1, 1" dilations="1, 1, 1" pads_begin="0, 0, 0" pads_end="0, 0, 0" auto_pad="explicit" />
			<input>
				<port id="0" precision="FP32">
					<dim>1</dim>
					<dim>120</dim>
					<dim>4</dim>
					<dim>1</dim>
					<dim>1</dim>
				</port>
				<port id="1" precision="FP32">
					<dim>30</dim>
					<dim>120</dim>
					<dim>1</dim>
					<dim>1</dim>
					<dim>1</dim>
				</port>
			</input>
			<output>
				<port id="2" precision="FP32">
					<dim>1</dim>
					<dim>30</dim>
					<dim>4</dim>
					<dim>1</dim>
					<dim>1</dim>
				</port>
			</output>
		</layer>
		<layer id="123" name="Reshape_651_compressed" type="Const" version="opset1">
			<data element_type="f16" shape="1, 30, 1, 1, 1" offset="85344" size="60" />
			<output>
				<port id="0" precision="FP16">
					<dim>1</dim>
					<dim>30</dim>
					<dim>1</dim>
					<dim>1</dim>
					<dim>1</dim>
				</port>
			</output>
		</layer>
		<layer id="124" name="Reshape_651" type="Convert" version="opset1">
			<data destination_type="f32" />
			<rt_info>
				<attribute name="decompression" version="0" />
			</rt_info>
			<input>
				<port id="0" precision="FP16">
					<dim>1</dim>
					<dim>30</dim>
					<dim>1</dim>
					<dim>1</dim>
					<dim>1</dim>
				</port>
			</input>
			<output>
				<port id="1" precision="FP32">
					<dim>1</dim>
					<dim>30</dim>
					<dim>1</dim>
					<dim>1</dim>
					<dim>1</dim>
				</port>
			</output>
		</layer>
		<layer id="125" name="Conv_59" type="Add" version="opset1">
			<data auto_broadcast="numpy" />
			<input>
				<port id="0" precision="FP32">
					<dim>1</dim>
					<dim>30</dim>
					<dim>4</dim>
					<dim>1</dim>
					<dim>1</dim>
				</port>
				<port id="1" precision="FP32">
					<dim>1</dim>
					<dim>30</dim>
					<dim>1</dim>
					<dim>1</dim>
					<dim>1</dim>
				</port>
			</input>
			<output>
				<port id="2" precision="FP32" names="402">
					<dim>1</dim>
					<dim>30</dim>
					<dim>4</dim>
					<dim>1</dim>
					<dim>1</dim>
				</port>
			</output>
		</layer>
		<layer id="126" name="Relu_60" type="ReLU" version="opset1">
			<input>
				<port id="0" precision="FP32">
					<dim>1</dim>
					<dim>30</dim>
					<dim>4</dim>
					<dim>1</dim>
					<dim>1</dim>
				</port>
			</input>
			<output>
				<port id="1" precision="FP32" names="403">
					<dim>1</dim>
					<dim>30</dim>
					<dim>4</dim>
					<dim>1</dim>
					<dim>1</dim>
				</port>
			</output>
		</layer>
		<layer id="127" name="backbone.features.5.conv.5.fc.2.weight_compressed" type="Const" version="opset1">
			<data element_type="f16" shape="120, 30, 1, 1, 1" offset="85404" size="7200" />
			<output>
				<port id="0" precision="FP16">
					<dim>120</dim>
					<dim>30</dim>
					<dim>1</dim>
					<dim>1</dim>
					<dim>1</dim>
				</port>
			</output>
		</layer>
		<layer id="128" name="backbone.features.5.conv.5.fc.2.weight" type="Convert" version="opset1">
			<data destination_type="f32" />
			<rt_info>
				<attribute name="decompression" version="0" />
			</rt_info>
			<input>
				<port id="0" precision="FP16">
					<dim>120</dim>
					<dim>30</dim>
					<dim>1</dim>
					<dim>1</dim>
					<dim>1</dim>
				</port>
			</input>
			<output>
				<port id="1" precision="FP32" names="backbone.features.5.conv.5.fc.2.weight">
					<dim>120</dim>
					<dim>30</dim>
					<dim>1</dim>
					<dim>1</dim>
					<dim>1</dim>
				</port>
			</output>
		</layer>
		<layer id="129" name="Conv_61/WithoutBiases" type="Convolution" version="opset1">
			<data strides="1, 1, 1" dilations="1, 1, 1" pads_begin="0, 0, 0" pads_end="0, 0, 0" auto_pad="explicit" />
			<input>
				<port id="0" precision="FP32">
					<dim>1</dim>
					<dim>30</dim>
					<dim>4</dim>
					<dim>1</dim>
					<dim>1</dim>
				</port>
				<port id="1" precision="FP32">
					<dim>120</dim>
					<dim>30</dim>
					<dim>1</dim>
					<dim>1</dim>
					<dim>1</dim>
				</port>
			</input>
			<output>
				<port id="2" precision="FP32">
					<dim>1</dim>
					<dim>120</dim>
					<dim>4</dim>
					<dim>1</dim>
					<dim>1</dim>
				</port>
			</output>
		</layer>
		<layer id="130" name="Reshape_667_compressed" type="Const" version="opset1">
			<data element_type="f16" shape="1, 120, 1, 1, 1" offset="92604" size="240" />
			<output>
				<port id="0" precision="FP16">
					<dim>1</dim>
					<dim>120</dim>
					<dim>1</dim>
					<dim>1</dim>
					<dim>1</dim>
				</port>
			</output>
		</layer>
		<layer id="131" name="Reshape_667" type="Convert" version="opset1">
			<data destination_type="f32" />
			<rt_info>
				<attribute name="decompression" version="0" />
			</rt_info>
			<input>
				<port id="0" precision="FP16">
					<dim>1</dim>
					<dim>120</dim>
					<dim>1</dim>
					<dim>1</dim>
					<dim>1</dim>
				</port>
			</input>
			<output>
				<port id="1" precision="FP32">
					<dim>1</dim>
					<dim>120</dim>
					<dim>1</dim>
					<dim>1</dim>
					<dim>1</dim>
				</port>
			</output>
		</layer>
		<layer id="132" name="Conv_61" type="Add" version="opset1">
			<data auto_broadcast="numpy" />
			<input>
				<port id="0" precision="FP32">
					<dim>1</dim>
					<dim>120</dim>
					<dim>4</dim>
					<dim>1</dim>
					<dim>1</dim>
				</port>
				<port id="1" precision="FP32">
					<dim>1</dim>
					<dim>120</dim>
					<dim>1</dim>
					<dim>1</dim>
					<dim>1</dim>
				</port>
			</input>
			<output>
				<port id="2" precision="FP32" names="404">
					<dim>1</dim>
					<dim>120</dim>
					<dim>4</dim>
					<dim>1</dim>
					<dim>1</dim>
				</port>
			</output>
		</layer>
		<layer id="133" name="Div_66" type="HSigmoid" version="opset5">
			<input>
				<port id="0" precision="FP32">
					<dim>1</dim>
					<dim>120</dim>
					<dim>4</dim>
					<dim>1</dim>
					<dim>1</dim>
				</port>
			</input>
			<output>
				<port id="1" precision="FP32" names="409">
					<dim>1</dim>
					<dim>120</dim>
					<dim>4</dim>
					<dim>1</dim>
					<dim>1</dim>
				</port>
			</output>
		</layer>
		<layer id="134" name="Mul_67" type="Multiply" version="opset1">
			<data auto_broadcast="numpy" />
			<input>
				<port id="0" precision="FP32">
					<dim>1</dim>
					<dim>120</dim>
					<dim>4</dim>
					<dim>1</dim>
					<dim>1</dim>
				</port>
				<port id="1" precision="FP32">
					<dim>1</dim>
					<dim>120</dim>
					<dim>4</dim>
					<dim>28</dim>
					<dim>28</dim>
				</port>
			</input>
			<output>
				<port id="2" precision="FP32" names="410">
					<dim>1</dim>
					<dim>120</dim>
					<dim>4</dim>
					<dim>28</dim>
					<dim>28</dim>
				</port>
			</output>
		</layer>
		<layer id="135" name="Relu_68" type="ReLU" version="opset1">
			<input>
				<port id="0" precision="FP32">
					<dim>1</dim>
					<dim>120</dim>
					<dim>4</dim>
					<dim>28</dim>
					<dim>28</dim>
				</port>
			</input>
			<output>
				<port id="1" precision="FP32" names="411">
					<dim>1</dim>
					<dim>120</dim>
					<dim>4</dim>
					<dim>28</dim>
					<dim>28</dim>
				</port>
			</output>
		</layer>
		<layer id="136" name="Multiply_8301_compressed" type="Const" version="opset1">
			<data element_type="f16" shape="40, 120, 3, 1, 1" offset="92844" size="28800" />
			<output>
				<port id="0" precision="FP16">
					<dim>40</dim>
					<dim>120</dim>
					<dim>3</dim>
					<dim>1</dim>
					<dim>1</dim>
				</port>
			</output>
		</layer>
		<layer id="137" name="Multiply_8301" type="Convert" version="opset1">
			<data destination_type="f32" />
			<rt_info>
				<attribute name="decompression" version="0" />
			</rt_info>
			<input>
				<port id="0" precision="FP16">
					<dim>40</dim>
					<dim>120</dim>
					<dim>3</dim>
					<dim>1</dim>
					<dim>1</dim>
				</port>
			</input>
			<output>
				<port id="1" precision="FP32">
					<dim>40</dim>
					<dim>120</dim>
					<dim>3</dim>
					<dim>1</dim>
					<dim>1</dim>
				</port>
			</output>
		</layer>
		<layer id="138" name="Multiply_7959" type="Convolution" version="opset1">
			<data strides="1, 1, 1" dilations="1, 1, 1" pads_begin="1, 0, 0" pads_end="1, 0, 0" auto_pad="explicit" />
			<input>
				<port id="0" precision="FP32">
					<dim>1</dim>
					<dim>120</dim>
					<dim>4</dim>
					<dim>28</dim>
					<dim>28</dim>
				</port>
				<port id="1" precision="FP32">
					<dim>40</dim>
					<dim>120</dim>
					<dim>3</dim>
					<dim>1</dim>
					<dim>1</dim>
				</port>
			</input>
			<output>
				<port id="2" precision="FP32">
					<dim>1</dim>
					<dim>40</dim>
					<dim>4</dim>
					<dim>28</dim>
					<dim>28</dim>
				</port>
			</output>
		</layer>
		<layer id="139" name="Constant_7964_compressed" type="Const" version="opset1">
			<data element_type="f16" shape="1, 40, 1, 1, 1" offset="121644" size="80" />
			<output>
				<port id="0" precision="FP16">
					<dim>1</dim>
					<dim>40</dim>
					<dim>1</dim>
					<dim>1</dim>
					<dim>1</dim>
				</port>
			</output>
		</layer>
		<layer id="140" name="Constant_7964" type="Convert" version="opset1">
			<data destination_type="f32" />
			<rt_info>
				<attribute name="decompression" version="0" />
			</rt_info>
			<input>
				<port id="0" precision="FP16">
					<dim>1</dim>
					<dim>40</dim>
					<dim>1</dim>
					<dim>1</dim>
					<dim>1</dim>
				</port>
			</input>
			<output>
				<port id="1" precision="FP32">
					<dim>1</dim>
					<dim>40</dim>
					<dim>1</dim>
					<dim>1</dim>
					<dim>1</dim>
				</port>
			</output>
		</layer>
		<layer id="141" name="BatchNormalization_70" type="Add" version="opset1">
			<data auto_broadcast="numpy" />
			<input>
				<port id="0" precision="FP32">
					<dim>1</dim>
					<dim>40</dim>
					<dim>4</dim>
					<dim>28</dim>
					<dim>28</dim>
				</port>
				<port id="1" precision="FP32">
					<dim>1</dim>
					<dim>40</dim>
					<dim>1</dim>
					<dim>1</dim>
					<dim>1</dim>
				</port>
			</input>
			<output>
				<port id="2" precision="FP32" names="413">
					<dim>1</dim>
					<dim>40</dim>
					<dim>4</dim>
					<dim>28</dim>
					<dim>28</dim>
				</port>
			</output>
		</layer>
		<layer id="142" name="Add_71" type="Add" version="opset1">
			<data auto_broadcast="numpy" />
			<input>
				<port id="0" precision="FP32">
					<dim>1</dim>
					<dim>40</dim>
					<dim>4</dim>
					<dim>28</dim>
					<dim>28</dim>
				</port>
				<port id="1" precision="FP32">
					<dim>1</dim>
					<dim>40</dim>
					<dim>4</dim>
					<dim>28</dim>
					<dim>28</dim>
				</port>
			</input>
			<output>
				<port id="2" precision="FP32" names="414">
					<dim>1</dim>
					<dim>40</dim>
					<dim>4</dim>
					<dim>28</dim>
					<dim>28</dim>
				</port>
			</output>
		</layer>
		<layer id="143" name="Multiply_8307_compressed" type="Const" version="opset1">
			<data element_type="f16" shape="120, 40, 1, 1, 1" offset="121724" size="9600" />
			<output>
				<port id="0" precision="FP16">
					<dim>120</dim>
					<dim>40</dim>
					<dim>1</dim>
					<dim>1</dim>
					<dim>1</dim>
				</port>
			</output>
		</layer>
		<layer id="144" name="Multiply_8307" type="Convert" version="opset1">
			<data destination_type="f32" />
			<rt_info>
				<attribute name="decompression" version="0" />
			</rt_info>
			<input>
				<port id="0" precision="FP16">
					<dim>120</dim>
					<dim>40</dim>
					<dim>1</dim>
					<dim>1</dim>
					<dim>1</dim>
				</port>
			</input>
			<output>
				<port id="1" precision="FP32">
					<dim>120</dim>
					<dim>40</dim>
					<dim>1</dim>
					<dim>1</dim>
					<dim>1</dim>
				</port>
			</output>
		</layer>
		<layer id="145" name="Multiply_7966" type="Convolution" version="opset1">
			<data strides="1, 1, 1" dilations="1, 1, 1" pads_begin="0, 0, 0" pads_end="0, 0, 0" auto_pad="explicit" />
			<input>
				<port id="0" precision="FP32">
					<dim>1</dim>
					<dim>40</dim>
					<dim>4</dim>
					<dim>28</dim>
					<dim>28</dim>
				</port>
				<port id="1" precision="FP32">
					<dim>120</dim>
					<dim>40</dim>
					<dim>1</dim>
					<dim>1</dim>
					<dim>1</dim>
				</port>
			</input>
			<output>
				<port id="2" precision="FP32">
					<dim>1</dim>
					<dim>120</dim>
					<dim>4</dim>
					<dim>28</dim>
					<dim>28</dim>
				</port>
			</output>
		</layer>
		<layer id="146" name="Constant_7971_compressed" type="Const" version="opset1">
			<data element_type="f16" shape="1, 120, 1, 1, 1" offset="131324" size="240" />
			<output>
				<port id="0" precision="FP16">
					<dim>1</dim>
					<dim>120</dim>
					<dim>1</dim>
					<dim>1</dim>
					<dim>1</dim>
				</port>
			</output>
		</layer>
		<layer id="147" name="Constant_7971" type="Convert" version="opset1">
			<data destination_type="f32" />
			<rt_info>
				<attribute name="decompression" version="0" />
			</rt_info>
			<input>
				<port id="0" precision="FP16">
					<dim>1</dim>
					<dim>120</dim>
					<dim>1</dim>
					<dim>1</dim>
					<dim>1</dim>
				</port>
			</input>
			<output>
				<port id="1" precision="FP32">
					<dim>1</dim>
					<dim>120</dim>
					<dim>1</dim>
					<dim>1</dim>
					<dim>1</dim>
				</port>
			</output>
		</layer>
		<layer id="148" name="BatchNormalization_73" type="Add" version="opset1">
			<data auto_broadcast="numpy" />
			<input>
				<port id="0" precision="FP32">
					<dim>1</dim>
					<dim>120</dim>
					<dim>4</dim>
					<dim>28</dim>
					<dim>28</dim>
				</port>
				<port id="1" precision="FP32">
					<dim>1</dim>
					<dim>120</dim>
					<dim>1</dim>
					<dim>1</dim>
					<dim>1</dim>
				</port>
			</input>
			<output>
				<port id="2" precision="FP32" names="416">
					<dim>1</dim>
					<dim>120</dim>
					<dim>4</dim>
					<dim>28</dim>
					<dim>28</dim>
				</port>
			</output>
		</layer>
		<layer id="149" name="Relu_74" type="ReLU" version="opset1">
			<input>
				<port id="0" precision="FP32">
					<dim>1</dim>
					<dim>120</dim>
					<dim>4</dim>
					<dim>28</dim>
					<dim>28</dim>
				</port>
			</input>
			<output>
				<port id="1" precision="FP32" names="417">
					<dim>1</dim>
					<dim>120</dim>
					<dim>4</dim>
					<dim>28</dim>
					<dim>28</dim>
				</port>
			</output>
		</layer>
		<layer id="150" name="Multiply_8313_compressed" type="Const" version="opset1">
			<data element_type="f16" shape="120, 1, 1, 1, 5, 5" offset="131564" size="6000" />
			<output>
				<port id="0" precision="FP16">
					<dim>120</dim>
					<dim>1</dim>
					<dim>1</dim>
					<dim>1</dim>
					<dim>5</dim>
					<dim>5</dim>
				</port>
			</output>
		</layer>
		<layer id="151" name="Multiply_8313" type="Convert" version="opset1">
			<data destination_type="f32" />
			<rt_info>
				<attribute name="decompression" version="0" />
			</rt_info>
			<input>
				<port id="0" precision="FP16">
					<dim>120</dim>
					<dim>1</dim>
					<dim>1</dim>
					<dim>1</dim>
					<dim>5</dim>
					<dim>5</dim>
				</port>
			</input>
			<output>
				<port id="1" precision="FP32">
					<dim>120</dim>
					<dim>1</dim>
					<dim>1</dim>
					<dim>1</dim>
					<dim>5</dim>
					<dim>5</dim>
				</port>
			</output>
		</layer>
		<layer id="152" name="Multiply_7973" type="GroupConvolution" version="opset1">
			<data strides="1, 1, 1" pads_begin="0, 2, 2" pads_end="0, 2, 2" dilations="1, 1, 1" auto_pad="explicit" />
			<input>
				<port id="0" precision="FP32">
					<dim>1</dim>
					<dim>120</dim>
					<dim>4</dim>
					<dim>28</dim>
					<dim>28</dim>
				</port>
				<port id="1" precision="FP32">
					<dim>120</dim>
					<dim>1</dim>
					<dim>1</dim>
					<dim>1</dim>
					<dim>5</dim>
					<dim>5</dim>
				</port>
			</input>
			<output>
				<port id="2" precision="FP32" names="418">
					<dim>1</dim>
					<dim>120</dim>
					<dim>4</dim>
					<dim>28</dim>
					<dim>28</dim>
				</port>
			</output>
		</layer>
		<layer id="153" name="Constant_7978_compressed" type="Const" version="opset1">
			<data element_type="f16" shape="1, 120, 1, 1, 1" offset="137564" size="240" />
			<output>
				<port id="0" precision="FP16">
					<dim>1</dim>
					<dim>120</dim>
					<dim>1</dim>
					<dim>1</dim>
					<dim>1</dim>
				</port>
			</output>
		</layer>
		<layer id="154" name="Constant_7978" type="Convert" version="opset1">
			<data destination_type="f32" />
			<rt_info>
				<attribute name="decompression" version="0" />
			</rt_info>
			<input>
				<port id="0" precision="FP16">
					<dim>1</dim>
					<dim>120</dim>
					<dim>1</dim>
					<dim>1</dim>
					<dim>1</dim>
				</port>
			</input>
			<output>
				<port id="1" precision="FP32">
					<dim>1</dim>
					<dim>120</dim>
					<dim>1</dim>
					<dim>1</dim>
					<dim>1</dim>
				</port>
			</output>
		</layer>
		<layer id="155" name="BatchNormalization_76" type="Add" version="opset1">
			<data auto_broadcast="numpy" />
			<input>
				<port id="0" precision="FP32">
					<dim>1</dim>
					<dim>120</dim>
					<dim>4</dim>
					<dim>28</dim>
					<dim>28</dim>
				</port>
				<port id="1" precision="FP32">
					<dim>1</dim>
					<dim>120</dim>
					<dim>1</dim>
					<dim>1</dim>
					<dim>1</dim>
				</port>
			</input>
			<output>
				<port id="2" precision="FP32" names="419,420">
					<dim>1</dim>
					<dim>120</dim>
					<dim>4</dim>
					<dim>28</dim>
					<dim>28</dim>
				</port>
			</output>
		</layer>
		<layer id="156" name="AveragePool_78" type="AvgPool" version="opset1">
			<data kernel="1, 28, 28" strides="1, 1, 1" pads_begin="0, 0, 0" pads_end="0, 0, 0" exclude-pad="true" auto_pad="explicit" rounding_type="floor" />
			<input>
				<port id="0" precision="FP32">
					<dim>1</dim>
					<dim>120</dim>
					<dim>4</dim>
					<dim>28</dim>
					<dim>28</dim>
				</port>
			</input>
			<output>
				<port id="1" precision="FP32" names="421">
					<dim>1</dim>
					<dim>120</dim>
					<dim>4</dim>
					<dim>1</dim>
					<dim>1</dim>
				</port>
			</output>
		</layer>
		<layer id="157" name="backbone.features.6.conv.5.fc.0.weight_compressed" type="Const" version="opset1">
			<data element_type="f16" shape="30, 120, 1, 1, 1" offset="137804" size="7200" />
			<output>
				<port id="0" precision="FP16">
					<dim>30</dim>
					<dim>120</dim>
					<dim>1</dim>
					<dim>1</dim>
					<dim>1</dim>
				</port>
			</output>
		</layer>
		<layer id="158" name="backbone.features.6.conv.5.fc.0.weight" type="Convert" version="opset1">
			<data destination_type="f32" />
			<rt_info>
				<attribute name="decompression" version="0" />
			</rt_info>
			<input>
				<port id="0" precision="FP16">
					<dim>30</dim>
					<dim>120</dim>
					<dim>1</dim>
					<dim>1</dim>
					<dim>1</dim>
				</port>
			</input>
			<output>
				<port id="1" precision="FP32" names="backbone.features.6.conv.5.fc.0.weight">
					<dim>30</dim>
					<dim>120</dim>
					<dim>1</dim>
					<dim>1</dim>
					<dim>1</dim>
				</port>
			</output>
		</layer>
		<layer id="159" name="Conv_79/WithoutBiases" type="Convolution" version="opset1">
			<data strides="1, 1, 1" dilations="1, 1, 1" pads_begin="0, 0, 0" pads_end="0, 0, 0" auto_pad="explicit" />
			<input>
				<port id="0" precision="FP32">
					<dim>1</dim>
					<dim>120</dim>
					<dim>4</dim>
					<dim>1</dim>
					<dim>1</dim>
				</port>
				<port id="1" precision="FP32">
					<dim>30</dim>
					<dim>120</dim>
					<dim>1</dim>
					<dim>1</dim>
					<dim>1</dim>
				</port>
			</input>
			<output>
				<port id="2" precision="FP32">
					<dim>1</dim>
					<dim>30</dim>
					<dim>4</dim>
					<dim>1</dim>
					<dim>1</dim>
				</port>
			</output>
		</layer>
		<layer id="160" name="Reshape_753_compressed" type="Const" version="opset1">
			<data element_type="f16" shape="1, 30, 1, 1, 1" offset="145004" size="60" />
			<output>
				<port id="0" precision="FP16">
					<dim>1</dim>
					<dim>30</dim>
					<dim>1</dim>
					<dim>1</dim>
					<dim>1</dim>
				</port>
			</output>
		</layer>
		<layer id="161" name="Reshape_753" type="Convert" version="opset1">
			<data destination_type="f32" />
			<rt_info>
				<attribute name="decompression" version="0" />
			</rt_info>
			<input>
				<port id="0" precision="FP16">
					<dim>1</dim>
					<dim>30</dim>
					<dim>1</dim>
					<dim>1</dim>
					<dim>1</dim>
				</port>
			</input>
			<output>
				<port id="1" precision="FP32">
					<dim>1</dim>
					<dim>30</dim>
					<dim>1</dim>
					<dim>1</dim>
					<dim>1</dim>
				</port>
			</output>
		</layer>
		<layer id="162" name="Conv_79" type="Add" version="opset1">
			<data auto_broadcast="numpy" />
			<input>
				<port id="0" precision="FP32">
					<dim>1</dim>
					<dim>30</dim>
					<dim>4</dim>
					<dim>1</dim>
					<dim>1</dim>
				</port>
				<port id="1" precision="FP32">
					<dim>1</dim>
					<dim>30</dim>
					<dim>1</dim>
					<dim>1</dim>
					<dim>1</dim>
				</port>
			</input>
			<output>
				<port id="2" precision="FP32" names="422">
					<dim>1</dim>
					<dim>30</dim>
					<dim>4</dim>
					<dim>1</dim>
					<dim>1</dim>
				</port>
			</output>
		</layer>
		<layer id="163" name="Relu_80" type="ReLU" version="opset1">
			<input>
				<port id="0" precision="FP32">
					<dim>1</dim>
					<dim>30</dim>
					<dim>4</dim>
					<dim>1</dim>
					<dim>1</dim>
				</port>
			</input>
			<output>
				<port id="1" precision="FP32" names="423">
					<dim>1</dim>
					<dim>30</dim>
					<dim>4</dim>
					<dim>1</dim>
					<dim>1</dim>
				</port>
			</output>
		</layer>
		<layer id="164" name="backbone.features.6.conv.5.fc.2.weight_compressed" type="Const" version="opset1">
			<data element_type="f16" shape="120, 30, 1, 1, 1" offset="145064" size="7200" />
			<output>
				<port id="0" precision="FP16">
					<dim>120</dim>
					<dim>30</dim>
					<dim>1</dim>
					<dim>1</dim>
					<dim>1</dim>
				</port>
			</output>
		</layer>
		<layer id="165" name="backbone.features.6.conv.5.fc.2.weight" type="Convert" version="opset1">
			<data destination_type="f32" />
			<rt_info>
				<attribute name="decompression" version="0" />
			</rt_info>
			<input>
				<port id="0" precision="FP16">
					<dim>120</dim>
					<dim>30</dim>
					<dim>1</dim>
					<dim>1</dim>
					<dim>1</dim>
				</port>
			</input>
			<output>
				<port id="1" precision="FP32" names="backbone.features.6.conv.5.fc.2.weight">
					<dim>120</dim>
					<dim>30</dim>
					<dim>1</dim>
					<dim>1</dim>
					<dim>1</dim>
				</port>
			</output>
		</layer>
		<layer id="166" name="Conv_81/WithoutBiases" type="Convolution" version="opset1">
			<data strides="1, 1, 1" dilations="1, 1, 1" pads_begin="0, 0, 0" pads_end="0, 0, 0" auto_pad="explicit" />
			<input>
				<port id="0" precision="FP32">
					<dim>1</dim>
					<dim>30</dim>
					<dim>4</dim>
					<dim>1</dim>
					<dim>1</dim>
				</port>
				<port id="1" precision="FP32">
					<dim>120</dim>
					<dim>30</dim>
					<dim>1</dim>
					<dim>1</dim>
					<dim>1</dim>
				</port>
			</input>
			<output>
				<port id="2" precision="FP32">
					<dim>1</dim>
					<dim>120</dim>
					<dim>4</dim>
					<dim>1</dim>
					<dim>1</dim>
				</port>
			</output>
		</layer>
		<layer id="167" name="Reshape_769_compressed" type="Const" version="opset1">
			<data element_type="f16" shape="1, 120, 1, 1, 1" offset="152264" size="240" />
			<output>
				<port id="0" precision="FP16">
					<dim>1</dim>
					<dim>120</dim>
					<dim>1</dim>
					<dim>1</dim>
					<dim>1</dim>
				</port>
			</output>
		</layer>
		<layer id="168" name="Reshape_769" type="Convert" version="opset1">
			<data destination_type="f32" />
			<rt_info>
				<attribute name="decompression" version="0" />
			</rt_info>
			<input>
				<port id="0" precision="FP16">
					<dim>1</dim>
					<dim>120</dim>
					<dim>1</dim>
					<dim>1</dim>
					<dim>1</dim>
				</port>
			</input>
			<output>
				<port id="1" precision="FP32">
					<dim>1</dim>
					<dim>120</dim>
					<dim>1</dim>
					<dim>1</dim>
					<dim>1</dim>
				</port>
			</output>
		</layer>
		<layer id="169" name="Conv_81" type="Add" version="opset1">
			<data auto_broadcast="numpy" />
			<input>
				<port id="0" precision="FP32">
					<dim>1</dim>
					<dim>120</dim>
					<dim>4</dim>
					<dim>1</dim>
					<dim>1</dim>
				</port>
				<port id="1" precision="FP32">
					<dim>1</dim>
					<dim>120</dim>
					<dim>1</dim>
					<dim>1</dim>
					<dim>1</dim>
				</port>
			</input>
			<output>
				<port id="2" precision="FP32" names="424">
					<dim>1</dim>
					<dim>120</dim>
					<dim>4</dim>
					<dim>1</dim>
					<dim>1</dim>
				</port>
			</output>
		</layer>
		<layer id="170" name="Div_86" type="HSigmoid" version="opset5">
			<input>
				<port id="0" precision="FP32">
					<dim>1</dim>
					<dim>120</dim>
					<dim>4</dim>
					<dim>1</dim>
					<dim>1</dim>
				</port>
			</input>
			<output>
				<port id="1" precision="FP32" names="429">
					<dim>1</dim>
					<dim>120</dim>
					<dim>4</dim>
					<dim>1</dim>
					<dim>1</dim>
				</port>
			</output>
		</layer>
		<layer id="171" name="Mul_87" type="Multiply" version="opset1">
			<data auto_broadcast="numpy" />
			<input>
				<port id="0" precision="FP32">
					<dim>1</dim>
					<dim>120</dim>
					<dim>4</dim>
					<dim>1</dim>
					<dim>1</dim>
				</port>
				<port id="1" precision="FP32">
					<dim>1</dim>
					<dim>120</dim>
					<dim>4</dim>
					<dim>28</dim>
					<dim>28</dim>
				</port>
			</input>
			<output>
				<port id="2" precision="FP32" names="430">
					<dim>1</dim>
					<dim>120</dim>
					<dim>4</dim>
					<dim>28</dim>
					<dim>28</dim>
				</port>
			</output>
		</layer>
		<layer id="172" name="Relu_88" type="ReLU" version="opset1">
			<input>
				<port id="0" precision="FP32">
					<dim>1</dim>
					<dim>120</dim>
					<dim>4</dim>
					<dim>28</dim>
					<dim>28</dim>
				</port>
			</input>
			<output>
				<port id="1" precision="FP32" names="431">
					<dim>1</dim>
					<dim>120</dim>
					<dim>4</dim>
					<dim>28</dim>
					<dim>28</dim>
				</port>
			</output>
		</layer>
		<layer id="173" name="Multiply_8318_compressed" type="Const" version="opset1">
			<data element_type="f16" shape="40, 120, 5, 1, 1" offset="152504" size="48000" />
			<output>
				<port id="0" precision="FP16">
					<dim>40</dim>
					<dim>120</dim>
					<dim>5</dim>
					<dim>1</dim>
					<dim>1</dim>
				</port>
			</output>
		</layer>
		<layer id="174" name="Multiply_8318" type="Convert" version="opset1">
			<data destination_type="f32" />
			<rt_info>
				<attribute name="decompression" version="0" />
			</rt_info>
			<input>
				<port id="0" precision="FP16">
					<dim>40</dim>
					<dim>120</dim>
					<dim>5</dim>
					<dim>1</dim>
					<dim>1</dim>
				</port>
			</input>
			<output>
				<port id="1" precision="FP32">
					<dim>40</dim>
					<dim>120</dim>
					<dim>5</dim>
					<dim>1</dim>
					<dim>1</dim>
				</port>
			</output>
		</layer>
		<layer id="175" name="Multiply_7980" type="Convolution" version="opset1">
			<data strides="1, 1, 1" dilations="1, 1, 1" pads_begin="2, 0, 0" pads_end="2, 0, 0" auto_pad="explicit" />
			<input>
				<port id="0" precision="FP32">
					<dim>1</dim>
					<dim>120</dim>
					<dim>4</dim>
					<dim>28</dim>
					<dim>28</dim>
				</port>
				<port id="1" precision="FP32">
					<dim>40</dim>
					<dim>120</dim>
					<dim>5</dim>
					<dim>1</dim>
					<dim>1</dim>
				</port>
			</input>
			<output>
				<port id="2" precision="FP32">
					<dim>1</dim>
					<dim>40</dim>
					<dim>4</dim>
					<dim>28</dim>
					<dim>28</dim>
				</port>
			</output>
		</layer>
		<layer id="176" name="Constant_7985_compressed" type="Const" version="opset1">
			<data element_type="f16" shape="1, 40, 1, 1, 1" offset="200504" size="80" />
			<output>
				<port id="0" precision="FP16">
					<dim>1</dim>
					<dim>40</dim>
					<dim>1</dim>
					<dim>1</dim>
					<dim>1</dim>
				</port>
			</output>
		</layer>
		<layer id="177" name="Constant_7985" type="Convert" version="opset1">
			<data destination_type="f32" />
			<rt_info>
				<attribute name="decompression" version="0" />
			</rt_info>
			<input>
				<port id="0" precision="FP16">
					<dim>1</dim>
					<dim>40</dim>
					<dim>1</dim>
					<dim>1</dim>
					<dim>1</dim>
				</port>
			</input>
			<output>
				<port id="1" precision="FP32">
					<dim>1</dim>
					<dim>40</dim>
					<dim>1</dim>
					<dim>1</dim>
					<dim>1</dim>
				</port>
			</output>
		</layer>
		<layer id="178" name="BatchNormalization_90" type="Add" version="opset1">
			<data auto_broadcast="numpy" />
			<input>
				<port id="0" precision="FP32">
					<dim>1</dim>
					<dim>40</dim>
					<dim>4</dim>
					<dim>28</dim>
					<dim>28</dim>
				</port>
				<port id="1" precision="FP32">
					<dim>1</dim>
					<dim>40</dim>
					<dim>1</dim>
					<dim>1</dim>
					<dim>1</dim>
				</port>
			</input>
			<output>
				<port id="2" precision="FP32" names="433">
					<dim>1</dim>
					<dim>40</dim>
					<dim>4</dim>
					<dim>28</dim>
					<dim>28</dim>
				</port>
			</output>
		</layer>
		<layer id="179" name="Add_91" type="Add" version="opset1">
			<data auto_broadcast="numpy" />
			<input>
				<port id="0" precision="FP32">
					<dim>1</dim>
					<dim>40</dim>
					<dim>4</dim>
					<dim>28</dim>
					<dim>28</dim>
				</port>
				<port id="1" precision="FP32">
					<dim>1</dim>
					<dim>40</dim>
					<dim>4</dim>
					<dim>28</dim>
					<dim>28</dim>
				</port>
			</input>
			<output>
				<port id="2" precision="FP32" names="434">
					<dim>1</dim>
					<dim>40</dim>
					<dim>4</dim>
					<dim>28</dim>
					<dim>28</dim>
				</port>
			</output>
		</layer>
		<layer id="180" name="Multiply_8324_compressed" type="Const" version="opset1">
			<data element_type="f16" shape="240, 40, 1, 1, 1" offset="200584" size="19200" />
			<output>
				<port id="0" precision="FP16">
					<dim>240</dim>
					<dim>40</dim>
					<dim>1</dim>
					<dim>1</dim>
					<dim>1</dim>
				</port>
			</output>
		</layer>
		<layer id="181" name="Multiply_8324" type="Convert" version="opset1">
			<data destination_type="f32" />
			<rt_info>
				<attribute name="decompression" version="0" />
			</rt_info>
			<input>
				<port id="0" precision="FP16">
					<dim>240</dim>
					<dim>40</dim>
					<dim>1</dim>
					<dim>1</dim>
					<dim>1</dim>
				</port>
			</input>
			<output>
				<port id="1" precision="FP32">
					<dim>240</dim>
					<dim>40</dim>
					<dim>1</dim>
					<dim>1</dim>
					<dim>1</dim>
				</port>
			</output>
		</layer>
		<layer id="182" name="Multiply_7987" type="Convolution" version="opset1">
			<data strides="1, 1, 1" dilations="1, 1, 1" pads_begin="0, 0, 0" pads_end="0, 0, 0" auto_pad="explicit" />
			<input>
				<port id="0" precision="FP32">
					<dim>1</dim>
					<dim>40</dim>
					<dim>4</dim>
					<dim>28</dim>
					<dim>28</dim>
				</port>
				<port id="1" precision="FP32">
					<dim>240</dim>
					<dim>40</dim>
					<dim>1</dim>
					<dim>1</dim>
					<dim>1</dim>
				</port>
			</input>
			<output>
				<port id="2" precision="FP32">
					<dim>1</dim>
					<dim>240</dim>
					<dim>4</dim>
					<dim>28</dim>
					<dim>28</dim>
				</port>
			</output>
		</layer>
		<layer id="183" name="Constant_7992_compressed" type="Const" version="opset1">
			<data element_type="f16" shape="1, 240, 1, 1, 1" offset="219784" size="480" />
			<output>
				<port id="0" precision="FP16">
					<dim>1</dim>
					<dim>240</dim>
					<dim>1</dim>
					<dim>1</dim>
					<dim>1</dim>
				</port>
			</output>
		</layer>
		<layer id="184" name="Constant_7992" type="Convert" version="opset1">
			<data destination_type="f32" />
			<rt_info>
				<attribute name="decompression" version="0" />
			</rt_info>
			<input>
				<port id="0" precision="FP16">
					<dim>1</dim>
					<dim>240</dim>
					<dim>1</dim>
					<dim>1</dim>
					<dim>1</dim>
				</port>
			</input>
			<output>
				<port id="1" precision="FP32">
					<dim>1</dim>
					<dim>240</dim>
					<dim>1</dim>
					<dim>1</dim>
					<dim>1</dim>
				</port>
			</output>
		</layer>
		<layer id="185" name="BatchNormalization_93" type="Add" version="opset1">
			<data auto_broadcast="numpy" />
			<input>
				<port id="0" precision="FP32">
					<dim>1</dim>
					<dim>240</dim>
					<dim>4</dim>
					<dim>28</dim>
					<dim>28</dim>
				</port>
				<port id="1" precision="FP32">
					<dim>1</dim>
					<dim>240</dim>
					<dim>1</dim>
					<dim>1</dim>
					<dim>1</dim>
				</port>
			</input>
			<output>
				<port id="2" precision="FP32" names="436">
					<dim>1</dim>
					<dim>240</dim>
					<dim>4</dim>
					<dim>28</dim>
					<dim>28</dim>
				</port>
			</output>
		</layer>
		<layer id="186" name="Mul_99" type="HSwish" version="opset4">
			<input>
				<port id="0" precision="FP32">
					<dim>1</dim>
					<dim>240</dim>
					<dim>4</dim>
					<dim>28</dim>
					<dim>28</dim>
				</port>
			</input>
			<output>
				<port id="1" precision="FP32" names="442">
					<dim>1</dim>
					<dim>240</dim>
					<dim>4</dim>
					<dim>28</dim>
					<dim>28</dim>
				</port>
			</output>
		</layer>
		<layer id="187" name="Multiply_8330_compressed" type="Const" version="opset1">
			<data element_type="f16" shape="240, 1, 1, 1, 3, 3" offset="220264" size="4320" />
			<output>
				<port id="0" precision="FP16">
					<dim>240</dim>
					<dim>1</dim>
					<dim>1</dim>
					<dim>1</dim>
					<dim>3</dim>
					<dim>3</dim>
				</port>
			</output>
		</layer>
		<layer id="188" name="Multiply_8330" type="Convert" version="opset1">
			<data destination_type="f32" />
			<rt_info>
				<attribute name="decompression" version="0" />
			</rt_info>
			<input>
				<port id="0" precision="FP16">
					<dim>240</dim>
					<dim>1</dim>
					<dim>1</dim>
					<dim>1</dim>
					<dim>3</dim>
					<dim>3</dim>
				</port>
			</input>
			<output>
				<port id="1" precision="FP32">
					<dim>240</dim>
					<dim>1</dim>
					<dim>1</dim>
					<dim>1</dim>
					<dim>3</dim>
					<dim>3</dim>
				</port>
			</output>
		</layer>
		<layer id="189" name="Multiply_7994" type="GroupConvolution" version="opset1">
			<data strides="1, 2, 2" pads_begin="0, 1, 1" pads_end="0, 1, 1" dilations="1, 1, 1" auto_pad="explicit" />
			<input>
				<port id="0" precision="FP32">
					<dim>1</dim>
					<dim>240</dim>
					<dim>4</dim>
					<dim>28</dim>
					<dim>28</dim>
				</port>
				<port id="1" precision="FP32">
					<dim>240</dim>
					<dim>1</dim>
					<dim>1</dim>
					<dim>1</dim>
					<dim>3</dim>
					<dim>3</dim>
				</port>
			</input>
			<output>
				<port id="2" precision="FP32" names="443">
					<dim>1</dim>
					<dim>240</dim>
					<dim>4</dim>
					<dim>14</dim>
					<dim>14</dim>
				</port>
			</output>
		</layer>
		<layer id="190" name="Constant_7999_compressed" type="Const" version="opset1">
			<data element_type="f16" shape="1, 240, 1, 1, 1" offset="224584" size="480" />
			<output>
				<port id="0" precision="FP16">
					<dim>1</dim>
					<dim>240</dim>
					<dim>1</dim>
					<dim>1</dim>
					<dim>1</dim>
				</port>
			</output>
		</layer>
		<layer id="191" name="Constant_7999" type="Convert" version="opset1">
			<data destination_type="f32" />
			<rt_info>
				<attribute name="decompression" version="0" />
			</rt_info>
			<input>
				<port id="0" precision="FP16">
					<dim>1</dim>
					<dim>240</dim>
					<dim>1</dim>
					<dim>1</dim>
					<dim>1</dim>
				</port>
			</input>
			<output>
				<port id="1" precision="FP32">
					<dim>1</dim>
					<dim>240</dim>
					<dim>1</dim>
					<dim>1</dim>
					<dim>1</dim>
				</port>
			</output>
		</layer>
		<layer id="192" name="BatchNormalization_101" type="Add" version="opset1">
			<data auto_broadcast="numpy" />
			<input>
				<port id="0" precision="FP32">
					<dim>1</dim>
					<dim>240</dim>
					<dim>4</dim>
					<dim>14</dim>
					<dim>14</dim>
				</port>
				<port id="1" precision="FP32">
					<dim>1</dim>
					<dim>240</dim>
					<dim>1</dim>
					<dim>1</dim>
					<dim>1</dim>
				</port>
			</input>
			<output>
				<port id="2" precision="FP32" names="444">
					<dim>1</dim>
					<dim>240</dim>
					<dim>4</dim>
					<dim>14</dim>
					<dim>14</dim>
				</port>
			</output>
		</layer>
		<layer id="193" name="Mul_107" type="HSwish" version="opset4">
			<input>
				<port id="0" precision="FP32">
					<dim>1</dim>
					<dim>240</dim>
					<dim>4</dim>
					<dim>14</dim>
					<dim>14</dim>
				</port>
			</input>
			<output>
				<port id="1" precision="FP32" names="450">
					<dim>1</dim>
					<dim>240</dim>
					<dim>4</dim>
					<dim>14</dim>
					<dim>14</dim>
				</port>
			</output>
		</layer>
		<layer id="194" name="Multiply_8335_compressed" type="Const" version="opset1">
			<data element_type="f16" shape="80, 240, 5, 1, 1" offset="225064" size="192000" />
			<output>
				<port id="0" precision="FP16">
					<dim>80</dim>
					<dim>240</dim>
					<dim>5</dim>
					<dim>1</dim>
					<dim>1</dim>
				</port>
			</output>
		</layer>
		<layer id="195" name="Multiply_8335" type="Convert" version="opset1">
			<data destination_type="f32" />
			<rt_info>
				<attribute name="decompression" version="0" />
			</rt_info>
			<input>
				<port id="0" precision="FP16">
					<dim>80</dim>
					<dim>240</dim>
					<dim>5</dim>
					<dim>1</dim>
					<dim>1</dim>
				</port>
			</input>
			<output>
				<port id="1" precision="FP32">
					<dim>80</dim>
					<dim>240</dim>
					<dim>5</dim>
					<dim>1</dim>
					<dim>1</dim>
				</port>
			</output>
		</layer>
		<layer id="196" name="Multiply_8001" type="Convolution" version="opset1">
			<data strides="1, 1, 1" dilations="1, 1, 1" pads_begin="2, 0, 0" pads_end="2, 0, 0" auto_pad="explicit" />
			<input>
				<port id="0" precision="FP32">
					<dim>1</dim>
					<dim>240</dim>
					<dim>4</dim>
					<dim>14</dim>
					<dim>14</dim>
				</port>
				<port id="1" precision="FP32">
					<dim>80</dim>
					<dim>240</dim>
					<dim>5</dim>
					<dim>1</dim>
					<dim>1</dim>
				</port>
			</input>
			<output>
				<port id="2" precision="FP32">
					<dim>1</dim>
					<dim>80</dim>
					<dim>4</dim>
					<dim>14</dim>
					<dim>14</dim>
				</port>
			</output>
		</layer>
		<layer id="197" name="Constant_8006_compressed" type="Const" version="opset1">
			<data element_type="f16" shape="1, 80, 1, 1, 1" offset="417064" size="160" />
			<output>
				<port id="0" precision="FP16">
					<dim>1</dim>
					<dim>80</dim>
					<dim>1</dim>
					<dim>1</dim>
					<dim>1</dim>
				</port>
			</output>
		</layer>
		<layer id="198" name="Constant_8006" type="Convert" version="opset1">
			<data destination_type="f32" />
			<rt_info>
				<attribute name="decompression" version="0" />
			</rt_info>
			<input>
				<port id="0" precision="FP16">
					<dim>1</dim>
					<dim>80</dim>
					<dim>1</dim>
					<dim>1</dim>
					<dim>1</dim>
				</port>
			</input>
			<output>
				<port id="1" precision="FP32">
					<dim>1</dim>
					<dim>80</dim>
					<dim>1</dim>
					<dim>1</dim>
					<dim>1</dim>
				</port>
			</output>
		</layer>
		<layer id="199" name="BatchNormalization_109" type="Add" version="opset1">
			<data auto_broadcast="numpy" />
			<input>
				<port id="0" precision="FP32">
					<dim>1</dim>
					<dim>80</dim>
					<dim>4</dim>
					<dim>14</dim>
					<dim>14</dim>
				</port>
				<port id="1" precision="FP32">
					<dim>1</dim>
					<dim>80</dim>
					<dim>1</dim>
					<dim>1</dim>
					<dim>1</dim>
				</port>
			</input>
			<output>
				<port id="2" precision="FP32" names="452">
					<dim>1</dim>
					<dim>80</dim>
					<dim>4</dim>
					<dim>14</dim>
					<dim>14</dim>
				</port>
			</output>
		</layer>
		<layer id="200" name="Multiply_8341_compressed" type="Const" version="opset1">
			<data element_type="f16" shape="200, 80, 1, 1, 1" offset="417224" size="32000" />
			<output>
				<port id="0" precision="FP16">
					<dim>200</dim>
					<dim>80</dim>
					<dim>1</dim>
					<dim>1</dim>
					<dim>1</dim>
				</port>
			</output>
		</layer>
		<layer id="201" name="Multiply_8341" type="Convert" version="opset1">
			<data destination_type="f32" />
			<rt_info>
				<attribute name="decompression" version="0" />
			</rt_info>
			<input>
				<port id="0" precision="FP16">
					<dim>200</dim>
					<dim>80</dim>
					<dim>1</dim>
					<dim>1</dim>
					<dim>1</dim>
				</port>
			</input>
			<output>
				<port id="1" precision="FP32">
					<dim>200</dim>
					<dim>80</dim>
					<dim>1</dim>
					<dim>1</dim>
					<dim>1</dim>
				</port>
			</output>
		</layer>
		<layer id="202" name="Multiply_8008" type="Convolution" version="opset1">
			<data strides="1, 1, 1" dilations="1, 1, 1" pads_begin="0, 0, 0" pads_end="0, 0, 0" auto_pad="explicit" />
			<input>
				<port id="0" precision="FP32">
					<dim>1</dim>
					<dim>80</dim>
					<dim>4</dim>
					<dim>14</dim>
					<dim>14</dim>
				</port>
				<port id="1" precision="FP32">
					<dim>200</dim>
					<dim>80</dim>
					<dim>1</dim>
					<dim>1</dim>
					<dim>1</dim>
				</port>
			</input>
			<output>
				<port id="2" precision="FP32">
					<dim>1</dim>
					<dim>200</dim>
					<dim>4</dim>
					<dim>14</dim>
					<dim>14</dim>
				</port>
			</output>
		</layer>
		<layer id="203" name="Constant_8013_compressed" type="Const" version="opset1">
			<data element_type="f16" shape="1, 200, 1, 1, 1" offset="449224" size="400" />
			<output>
				<port id="0" precision="FP16">
					<dim>1</dim>
					<dim>200</dim>
					<dim>1</dim>
					<dim>1</dim>
					<dim>1</dim>
				</port>
			</output>
		</layer>
		<layer id="204" name="Constant_8013" type="Convert" version="opset1">
			<data destination_type="f32" />
			<rt_info>
				<attribute name="decompression" version="0" />
			</rt_info>
			<input>
				<port id="0" precision="FP16">
					<dim>1</dim>
					<dim>200</dim>
					<dim>1</dim>
					<dim>1</dim>
					<dim>1</dim>
				</port>
			</input>
			<output>
				<port id="1" precision="FP32">
					<dim>1</dim>
					<dim>200</dim>
					<dim>1</dim>
					<dim>1</dim>
					<dim>1</dim>
				</port>
			</output>
		</layer>
		<layer id="205" name="BatchNormalization_111" type="Add" version="opset1">
			<data auto_broadcast="numpy" />
			<input>
				<port id="0" precision="FP32">
					<dim>1</dim>
					<dim>200</dim>
					<dim>4</dim>
					<dim>14</dim>
					<dim>14</dim>
				</port>
				<port id="1" precision="FP32">
					<dim>1</dim>
					<dim>200</dim>
					<dim>1</dim>
					<dim>1</dim>
					<dim>1</dim>
				</port>
			</input>
			<output>
				<port id="2" precision="FP32" names="454">
					<dim>1</dim>
					<dim>200</dim>
					<dim>4</dim>
					<dim>14</dim>
					<dim>14</dim>
				</port>
			</output>
		</layer>
		<layer id="206" name="Mul_117" type="HSwish" version="opset4">
			<input>
				<port id="0" precision="FP32">
					<dim>1</dim>
					<dim>200</dim>
					<dim>4</dim>
					<dim>14</dim>
					<dim>14</dim>
				</port>
			</input>
			<output>
				<port id="1" precision="FP32" names="460">
					<dim>1</dim>
					<dim>200</dim>
					<dim>4</dim>
					<dim>14</dim>
					<dim>14</dim>
				</port>
			</output>
		</layer>
		<layer id="207" name="Multiply_8347_compressed" type="Const" version="opset1">
			<data element_type="f16" shape="200, 1, 1, 1, 3, 3" offset="449624" size="3600" />
			<output>
				<port id="0" precision="FP16">
					<dim>200</dim>
					<dim>1</dim>
					<dim>1</dim>
					<dim>1</dim>
					<dim>3</dim>
					<dim>3</dim>
				</port>
			</output>
		</layer>
		<layer id="208" name="Multiply_8347" type="Convert" version="opset1">
			<data destination_type="f32" />
			<rt_info>
				<attribute name="decompression" version="0" />
			</rt_info>
			<input>
				<port id="0" precision="FP16">
					<dim>200</dim>
					<dim>1</dim>
					<dim>1</dim>
					<dim>1</dim>
					<dim>3</dim>
					<dim>3</dim>
				</port>
			</input>
			<output>
				<port id="1" precision="FP32">
					<dim>200</dim>
					<dim>1</dim>
					<dim>1</dim>
					<dim>1</dim>
					<dim>3</dim>
					<dim>3</dim>
				</port>
			</output>
		</layer>
		<layer id="209" name="Multiply_8015" type="GroupConvolution" version="opset1">
			<data strides="1, 1, 1" pads_begin="0, 1, 1" pads_end="0, 1, 1" dilations="1, 1, 1" auto_pad="explicit" />
			<input>
				<port id="0" precision="FP32">
					<dim>1</dim>
					<dim>200</dim>
					<dim>4</dim>
					<dim>14</dim>
					<dim>14</dim>
				</port>
				<port id="1" precision="FP32">
					<dim>200</dim>
					<dim>1</dim>
					<dim>1</dim>
					<dim>1</dim>
					<dim>3</dim>
					<dim>3</dim>
				</port>
			</input>
			<output>
				<port id="2" precision="FP32" names="461">
					<dim>1</dim>
					<dim>200</dim>
					<dim>4</dim>
					<dim>14</dim>
					<dim>14</dim>
				</port>
			</output>
		</layer>
		<layer id="210" name="Constant_8020_compressed" type="Const" version="opset1">
			<data element_type="f16" shape="1, 200, 1, 1, 1" offset="453224" size="400" />
			<output>
				<port id="0" precision="FP16">
					<dim>1</dim>
					<dim>200</dim>
					<dim>1</dim>
					<dim>1</dim>
					<dim>1</dim>
				</port>
			</output>
		</layer>
		<layer id="211" name="Constant_8020" type="Convert" version="opset1">
			<data destination_type="f32" />
			<rt_info>
				<attribute name="decompression" version="0" />
			</rt_info>
			<input>
				<port id="0" precision="FP16">
					<dim>1</dim>
					<dim>200</dim>
					<dim>1</dim>
					<dim>1</dim>
					<dim>1</dim>
				</port>
			</input>
			<output>
				<port id="1" precision="FP32">
					<dim>1</dim>
					<dim>200</dim>
					<dim>1</dim>
					<dim>1</dim>
					<dim>1</dim>
				</port>
			</output>
		</layer>
		<layer id="212" name="BatchNormalization_119" type="Add" version="opset1">
			<data auto_broadcast="numpy" />
			<input>
				<port id="0" precision="FP32">
					<dim>1</dim>
					<dim>200</dim>
					<dim>4</dim>
					<dim>14</dim>
					<dim>14</dim>
				</port>
				<port id="1" precision="FP32">
					<dim>1</dim>
					<dim>200</dim>
					<dim>1</dim>
					<dim>1</dim>
					<dim>1</dim>
				</port>
			</input>
			<output>
				<port id="2" precision="FP32" names="462">
					<dim>1</dim>
					<dim>200</dim>
					<dim>4</dim>
					<dim>14</dim>
					<dim>14</dim>
				</port>
			</output>
		</layer>
		<layer id="213" name="Mul_125" type="HSwish" version="opset4">
			<input>
				<port id="0" precision="FP32">
					<dim>1</dim>
					<dim>200</dim>
					<dim>4</dim>
					<dim>14</dim>
					<dim>14</dim>
				</port>
			</input>
			<output>
				<port id="1" precision="FP32" names="468">
					<dim>1</dim>
					<dim>200</dim>
					<dim>4</dim>
					<dim>14</dim>
					<dim>14</dim>
				</port>
			</output>
		</layer>
		<layer id="214" name="Multiply_8352_compressed" type="Const" version="opset1">
			<data element_type="f16" shape="80, 200, 3, 1, 1" offset="453624" size="96000" />
			<output>
				<port id="0" precision="FP16">
					<dim>80</dim>
					<dim>200</dim>
					<dim>3</dim>
					<dim>1</dim>
					<dim>1</dim>
				</port>
			</output>
		</layer>
		<layer id="215" name="Multiply_8352" type="Convert" version="opset1">
			<data destination_type="f32" />
			<rt_info>
				<attribute name="decompression" version="0" />
			</rt_info>
			<input>
				<port id="0" precision="FP16">
					<dim>80</dim>
					<dim>200</dim>
					<dim>3</dim>
					<dim>1</dim>
					<dim>1</dim>
				</port>
			</input>
			<output>
				<port id="1" precision="FP32">
					<dim>80</dim>
					<dim>200</dim>
					<dim>3</dim>
					<dim>1</dim>
					<dim>1</dim>
				</port>
			</output>
		</layer>
		<layer id="216" name="Multiply_8022" type="Convolution" version="opset1">
			<data strides="1, 1, 1" dilations="1, 1, 1" pads_begin="1, 0, 0" pads_end="1, 0, 0" auto_pad="explicit" />
			<input>
				<port id="0" precision="FP32">
					<dim>1</dim>
					<dim>200</dim>
					<dim>4</dim>
					<dim>14</dim>
					<dim>14</dim>
				</port>
				<port id="1" precision="FP32">
					<dim>80</dim>
					<dim>200</dim>
					<dim>3</dim>
					<dim>1</dim>
					<dim>1</dim>
				</port>
			</input>
			<output>
				<port id="2" precision="FP32">
					<dim>1</dim>
					<dim>80</dim>
					<dim>4</dim>
					<dim>14</dim>
					<dim>14</dim>
				</port>
			</output>
		</layer>
		<layer id="217" name="Constant_8027_compressed" type="Const" version="opset1">
			<data element_type="f16" shape="1, 80, 1, 1, 1" offset="549624" size="160" />
			<output>
				<port id="0" precision="FP16">
					<dim>1</dim>
					<dim>80</dim>
					<dim>1</dim>
					<dim>1</dim>
					<dim>1</dim>
				</port>
			</output>
		</layer>
		<layer id="218" name="Constant_8027" type="Convert" version="opset1">
			<data destination_type="f32" />
			<rt_info>
				<attribute name="decompression" version="0" />
			</rt_info>
			<input>
				<port id="0" precision="FP16">
					<dim>1</dim>
					<dim>80</dim>
					<dim>1</dim>
					<dim>1</dim>
					<dim>1</dim>
				</port>
			</input>
			<output>
				<port id="1" precision="FP32">
					<dim>1</dim>
					<dim>80</dim>
					<dim>1</dim>
					<dim>1</dim>
					<dim>1</dim>
				</port>
			</output>
		</layer>
		<layer id="219" name="BatchNormalization_127" type="Add" version="opset1">
			<data auto_broadcast="numpy" />
			<input>
				<port id="0" precision="FP32">
					<dim>1</dim>
					<dim>80</dim>
					<dim>4</dim>
					<dim>14</dim>
					<dim>14</dim>
				</port>
				<port id="1" precision="FP32">
					<dim>1</dim>
					<dim>80</dim>
					<dim>1</dim>
					<dim>1</dim>
					<dim>1</dim>
				</port>
			</input>
			<output>
				<port id="2" precision="FP32" names="470">
					<dim>1</dim>
					<dim>80</dim>
					<dim>4</dim>
					<dim>14</dim>
					<dim>14</dim>
				</port>
			</output>
		</layer>
		<layer id="220" name="Add_128" type="Add" version="opset1">
			<data auto_broadcast="numpy" />
			<input>
				<port id="0" precision="FP32">
					<dim>1</dim>
					<dim>80</dim>
					<dim>4</dim>
					<dim>14</dim>
					<dim>14</dim>
				</port>
				<port id="1" precision="FP32">
					<dim>1</dim>
					<dim>80</dim>
					<dim>4</dim>
					<dim>14</dim>
					<dim>14</dim>
				</port>
			</input>
			<output>
				<port id="2" precision="FP32" names="471">
					<dim>1</dim>
					<dim>80</dim>
					<dim>4</dim>
					<dim>14</dim>
					<dim>14</dim>
				</port>
			</output>
		</layer>
		<layer id="221" name="Multiply_8358_compressed" type="Const" version="opset1">
			<data element_type="f16" shape="184, 80, 1, 1, 1" offset="549784" size="29440" />
			<output>
				<port id="0" precision="FP16">
					<dim>184</dim>
					<dim>80</dim>
					<dim>1</dim>
					<dim>1</dim>
					<dim>1</dim>
				</port>
			</output>
		</layer>
		<layer id="222" name="Multiply_8358" type="Convert" version="opset1">
			<data destination_type="f32" />
			<rt_info>
				<attribute name="decompression" version="0" />
			</rt_info>
			<input>
				<port id="0" precision="FP16">
					<dim>184</dim>
					<dim>80</dim>
					<dim>1</dim>
					<dim>1</dim>
					<dim>1</dim>
				</port>
			</input>
			<output>
				<port id="1" precision="FP32">
					<dim>184</dim>
					<dim>80</dim>
					<dim>1</dim>
					<dim>1</dim>
					<dim>1</dim>
				</port>
			</output>
		</layer>
		<layer id="223" name="Multiply_8029" type="Convolution" version="opset1">
			<data strides="1, 1, 1" dilations="1, 1, 1" pads_begin="0, 0, 0" pads_end="0, 0, 0" auto_pad="explicit" />
			<input>
				<port id="0" precision="FP32">
					<dim>1</dim>
					<dim>80</dim>
					<dim>4</dim>
					<dim>14</dim>
					<dim>14</dim>
				</port>
				<port id="1" precision="FP32">
					<dim>184</dim>
					<dim>80</dim>
					<dim>1</dim>
					<dim>1</dim>
					<dim>1</dim>
				</port>
			</input>
			<output>
				<port id="2" precision="FP32">
					<dim>1</dim>
					<dim>184</dim>
					<dim>4</dim>
					<dim>14</dim>
					<dim>14</dim>
				</port>
			</output>
		</layer>
		<layer id="224" name="Constant_8034_compressed" type="Const" version="opset1">
			<data element_type="f16" shape="1, 184, 1, 1, 1" offset="579224" size="368" />
			<output>
				<port id="0" precision="FP16">
					<dim>1</dim>
					<dim>184</dim>
					<dim>1</dim>
					<dim>1</dim>
					<dim>1</dim>
				</port>
			</output>
		</layer>
		<layer id="225" name="Constant_8034" type="Convert" version="opset1">
			<data destination_type="f32" />
			<rt_info>
				<attribute name="decompression" version="0" />
			</rt_info>
			<input>
				<port id="0" precision="FP16">
					<dim>1</dim>
					<dim>184</dim>
					<dim>1</dim>
					<dim>1</dim>
					<dim>1</dim>
				</port>
			</input>
			<output>
				<port id="1" precision="FP32">
					<dim>1</dim>
					<dim>184</dim>
					<dim>1</dim>
					<dim>1</dim>
					<dim>1</dim>
				</port>
			</output>
		</layer>
		<layer id="226" name="BatchNormalization_130" type="Add" version="opset1">
			<data auto_broadcast="numpy" />
			<input>
				<port id="0" precision="FP32">
					<dim>1</dim>
					<dim>184</dim>
					<dim>4</dim>
					<dim>14</dim>
					<dim>14</dim>
				</port>
				<port id="1" precision="FP32">
					<dim>1</dim>
					<dim>184</dim>
					<dim>1</dim>
					<dim>1</dim>
					<dim>1</dim>
				</port>
			</input>
			<output>
				<port id="2" precision="FP32" names="473">
					<dim>1</dim>
					<dim>184</dim>
					<dim>4</dim>
					<dim>14</dim>
					<dim>14</dim>
				</port>
			</output>
		</layer>
		<layer id="227" name="Mul_136" type="HSwish" version="opset4">
			<input>
				<port id="0" precision="FP32">
					<dim>1</dim>
					<dim>184</dim>
					<dim>4</dim>
					<dim>14</dim>
					<dim>14</dim>
				</port>
			</input>
			<output>
				<port id="1" precision="FP32" names="479">
					<dim>1</dim>
					<dim>184</dim>
					<dim>4</dim>
					<dim>14</dim>
					<dim>14</dim>
				</port>
			</output>
		</layer>
		<layer id="228" name="Multiply_8364_compressed" type="Const" version="opset1">
			<data element_type="f16" shape="184, 1, 1, 1, 3, 3" offset="579592" size="3312" />
			<output>
				<port id="0" precision="FP16">
					<dim>184</dim>
					<dim>1</dim>
					<dim>1</dim>
					<dim>1</dim>
					<dim>3</dim>
					<dim>3</dim>
				</port>
			</output>
		</layer>
		<layer id="229" name="Multiply_8364" type="Convert" version="opset1">
			<data destination_type="f32" />
			<rt_info>
				<attribute name="decompression" version="0" />
			</rt_info>
			<input>
				<port id="0" precision="FP16">
					<dim>184</dim>
					<dim>1</dim>
					<dim>1</dim>
					<dim>1</dim>
					<dim>3</dim>
					<dim>3</dim>
				</port>
			</input>
			<output>
				<port id="1" precision="FP32">
					<dim>184</dim>
					<dim>1</dim>
					<dim>1</dim>
					<dim>1</dim>
					<dim>3</dim>
					<dim>3</dim>
				</port>
			</output>
		</layer>
		<layer id="230" name="Multiply_8036" type="GroupConvolution" version="opset1">
			<data strides="1, 1, 1" pads_begin="0, 1, 1" pads_end="0, 1, 1" dilations="1, 1, 1" auto_pad="explicit" />
			<input>
				<port id="0" precision="FP32">
					<dim>1</dim>
					<dim>184</dim>
					<dim>4</dim>
					<dim>14</dim>
					<dim>14</dim>
				</port>
				<port id="1" precision="FP32">
					<dim>184</dim>
					<dim>1</dim>
					<dim>1</dim>
					<dim>1</dim>
					<dim>3</dim>
					<dim>3</dim>
				</port>
			</input>
			<output>
				<port id="2" precision="FP32" names="480">
					<dim>1</dim>
					<dim>184</dim>
					<dim>4</dim>
					<dim>14</dim>
					<dim>14</dim>
				</port>
			</output>
		</layer>
		<layer id="231" name="Constant_8041_compressed" type="Const" version="opset1">
			<data element_type="f16" shape="1, 184, 1, 1, 1" offset="582904" size="368" />
			<output>
				<port id="0" precision="FP16">
					<dim>1</dim>
					<dim>184</dim>
					<dim>1</dim>
					<dim>1</dim>
					<dim>1</dim>
				</port>
			</output>
		</layer>
		<layer id="232" name="Constant_8041" type="Convert" version="opset1">
			<data destination_type="f32" />
			<rt_info>
				<attribute name="decompression" version="0" />
			</rt_info>
			<input>
				<port id="0" precision="FP16">
					<dim>1</dim>
					<dim>184</dim>
					<dim>1</dim>
					<dim>1</dim>
					<dim>1</dim>
				</port>
			</input>
			<output>
				<port id="1" precision="FP32">
					<dim>1</dim>
					<dim>184</dim>
					<dim>1</dim>
					<dim>1</dim>
					<dim>1</dim>
				</port>
			</output>
		</layer>
		<layer id="233" name="BatchNormalization_138" type="Add" version="opset1">
			<data auto_broadcast="numpy" />
			<input>
				<port id="0" precision="FP32">
					<dim>1</dim>
					<dim>184</dim>
					<dim>4</dim>
					<dim>14</dim>
					<dim>14</dim>
				</port>
				<port id="1" precision="FP32">
					<dim>1</dim>
					<dim>184</dim>
					<dim>1</dim>
					<dim>1</dim>
					<dim>1</dim>
				</port>
			</input>
			<output>
				<port id="2" precision="FP32" names="481">
					<dim>1</dim>
					<dim>184</dim>
					<dim>4</dim>
					<dim>14</dim>
					<dim>14</dim>
				</port>
			</output>
		</layer>
		<layer id="234" name="Mul_144" type="HSwish" version="opset4">
			<input>
				<port id="0" precision="FP32">
					<dim>1</dim>
					<dim>184</dim>
					<dim>4</dim>
					<dim>14</dim>
					<dim>14</dim>
				</port>
			</input>
			<output>
				<port id="1" precision="FP32" names="487">
					<dim>1</dim>
					<dim>184</dim>
					<dim>4</dim>
					<dim>14</dim>
					<dim>14</dim>
				</port>
			</output>
		</layer>
		<layer id="235" name="Multiply_8369_compressed" type="Const" version="opset1">
			<data element_type="f16" shape="80, 184, 3, 1, 1" offset="583272" size="88320" />
			<output>
				<port id="0" precision="FP16">
					<dim>80</dim>
					<dim>184</dim>
					<dim>3</dim>
					<dim>1</dim>
					<dim>1</dim>
				</port>
			</output>
		</layer>
		<layer id="236" name="Multiply_8369" type="Convert" version="opset1">
			<data destination_type="f32" />
			<rt_info>
				<attribute name="decompression" version="0" />
			</rt_info>
			<input>
				<port id="0" precision="FP16">
					<dim>80</dim>
					<dim>184</dim>
					<dim>3</dim>
					<dim>1</dim>
					<dim>1</dim>
				</port>
			</input>
			<output>
				<port id="1" precision="FP32">
					<dim>80</dim>
					<dim>184</dim>
					<dim>3</dim>
					<dim>1</dim>
					<dim>1</dim>
				</port>
			</output>
		</layer>
		<layer id="237" name="Multiply_8043" type="Convolution" version="opset1">
			<data strides="1, 1, 1" dilations="1, 1, 1" pads_begin="1, 0, 0" pads_end="1, 0, 0" auto_pad="explicit" />
			<input>
				<port id="0" precision="FP32">
					<dim>1</dim>
					<dim>184</dim>
					<dim>4</dim>
					<dim>14</dim>
					<dim>14</dim>
				</port>
				<port id="1" precision="FP32">
					<dim>80</dim>
					<dim>184</dim>
					<dim>3</dim>
					<dim>1</dim>
					<dim>1</dim>
				</port>
			</input>
			<output>
				<port id="2" precision="FP32">
					<dim>1</dim>
					<dim>80</dim>
					<dim>4</dim>
					<dim>14</dim>
					<dim>14</dim>
				</port>
			</output>
		</layer>
		<layer id="238" name="Constant_8048_compressed" type="Const" version="opset1">
			<data element_type="f16" shape="1, 80, 1, 1, 1" offset="671592" size="160" />
			<output>
				<port id="0" precision="FP16">
					<dim>1</dim>
					<dim>80</dim>
					<dim>1</dim>
					<dim>1</dim>
					<dim>1</dim>
				</port>
			</output>
		</layer>
		<layer id="239" name="Constant_8048" type="Convert" version="opset1">
			<data destination_type="f32" />
			<rt_info>
				<attribute name="decompression" version="0" />
			</rt_info>
			<input>
				<port id="0" precision="FP16">
					<dim>1</dim>
					<dim>80</dim>
					<dim>1</dim>
					<dim>1</dim>
					<dim>1</dim>
				</port>
			</input>
			<output>
				<port id="1" precision="FP32">
					<dim>1</dim>
					<dim>80</dim>
					<dim>1</dim>
					<dim>1</dim>
					<dim>1</dim>
				</port>
			</output>
		</layer>
		<layer id="240" name="BatchNormalization_146" type="Add" version="opset1">
			<data auto_broadcast="numpy" />
			<input>
				<port id="0" precision="FP32">
					<dim>1</dim>
					<dim>80</dim>
					<dim>4</dim>
					<dim>14</dim>
					<dim>14</dim>
				</port>
				<port id="1" precision="FP32">
					<dim>1</dim>
					<dim>80</dim>
					<dim>1</dim>
					<dim>1</dim>
					<dim>1</dim>
				</port>
			</input>
			<output>
				<port id="2" precision="FP32" names="489">
					<dim>1</dim>
					<dim>80</dim>
					<dim>4</dim>
					<dim>14</dim>
					<dim>14</dim>
				</port>
			</output>
		</layer>
		<layer id="241" name="Add_147" type="Add" version="opset1">
			<data auto_broadcast="numpy" />
			<input>
				<port id="0" precision="FP32">
					<dim>1</dim>
					<dim>80</dim>
					<dim>4</dim>
					<dim>14</dim>
					<dim>14</dim>
				</port>
				<port id="1" precision="FP32">
					<dim>1</dim>
					<dim>80</dim>
					<dim>4</dim>
					<dim>14</dim>
					<dim>14</dim>
				</port>
			</input>
			<output>
				<port id="2" precision="FP32" names="490">
					<dim>1</dim>
					<dim>80</dim>
					<dim>4</dim>
					<dim>14</dim>
					<dim>14</dim>
				</port>
			</output>
		</layer>
		<layer id="242" name="Multiply_8375_compressed" type="Const" version="opset1">
			<data element_type="f16" shape="184, 80, 1, 1, 1" offset="671752" size="29440" />
			<output>
				<port id="0" precision="FP16">
					<dim>184</dim>
					<dim>80</dim>
					<dim>1</dim>
					<dim>1</dim>
					<dim>1</dim>
				</port>
			</output>
		</layer>
		<layer id="243" name="Multiply_8375" type="Convert" version="opset1">
			<data destination_type="f32" />
			<rt_info>
				<attribute name="decompression" version="0" />
			</rt_info>
			<input>
				<port id="0" precision="FP16">
					<dim>184</dim>
					<dim>80</dim>
					<dim>1</dim>
					<dim>1</dim>
					<dim>1</dim>
				</port>
			</input>
			<output>
				<port id="1" precision="FP32">
					<dim>184</dim>
					<dim>80</dim>
					<dim>1</dim>
					<dim>1</dim>
					<dim>1</dim>
				</port>
			</output>
		</layer>
		<layer id="244" name="Multiply_8050" type="Convolution" version="opset1">
			<data strides="1, 1, 1" dilations="1, 1, 1" pads_begin="0, 0, 0" pads_end="0, 0, 0" auto_pad="explicit" />
			<input>
				<port id="0" precision="FP32">
					<dim>1</dim>
					<dim>80</dim>
					<dim>4</dim>
					<dim>14</dim>
					<dim>14</dim>
				</port>
				<port id="1" precision="FP32">
					<dim>184</dim>
					<dim>80</dim>
					<dim>1</dim>
					<dim>1</dim>
					<dim>1</dim>
				</port>
			</input>
			<output>
				<port id="2" precision="FP32">
					<dim>1</dim>
					<dim>184</dim>
					<dim>4</dim>
					<dim>14</dim>
					<dim>14</dim>
				</port>
			</output>
		</layer>
		<layer id="245" name="Constant_8055_compressed" type="Const" version="opset1">
			<data element_type="f16" shape="1, 184, 1, 1, 1" offset="701192" size="368" />
			<output>
				<port id="0" precision="FP16">
					<dim>1</dim>
					<dim>184</dim>
					<dim>1</dim>
					<dim>1</dim>
					<dim>1</dim>
				</port>
			</output>
		</layer>
		<layer id="246" name="Constant_8055" type="Convert" version="opset1">
			<data destination_type="f32" />
			<rt_info>
				<attribute name="decompression" version="0" />
			</rt_info>
			<input>
				<port id="0" precision="FP16">
					<dim>1</dim>
					<dim>184</dim>
					<dim>1</dim>
					<dim>1</dim>
					<dim>1</dim>
				</port>
			</input>
			<output>
				<port id="1" precision="FP32">
					<dim>1</dim>
					<dim>184</dim>
					<dim>1</dim>
					<dim>1</dim>
					<dim>1</dim>
				</port>
			</output>
		</layer>
		<layer id="247" name="BatchNormalization_149" type="Add" version="opset1">
			<data auto_broadcast="numpy" />
			<input>
				<port id="0" precision="FP32">
					<dim>1</dim>
					<dim>184</dim>
					<dim>4</dim>
					<dim>14</dim>
					<dim>14</dim>
				</port>
				<port id="1" precision="FP32">
					<dim>1</dim>
					<dim>184</dim>
					<dim>1</dim>
					<dim>1</dim>
					<dim>1</dim>
				</port>
			</input>
			<output>
				<port id="2" precision="FP32" names="492">
					<dim>1</dim>
					<dim>184</dim>
					<dim>4</dim>
					<dim>14</dim>
					<dim>14</dim>
				</port>
			</output>
		</layer>
		<layer id="248" name="Mul_155" type="HSwish" version="opset4">
			<input>
				<port id="0" precision="FP32">
					<dim>1</dim>
					<dim>184</dim>
					<dim>4</dim>
					<dim>14</dim>
					<dim>14</dim>
				</port>
			</input>
			<output>
				<port id="1" precision="FP32" names="498">
					<dim>1</dim>
					<dim>184</dim>
					<dim>4</dim>
					<dim>14</dim>
					<dim>14</dim>
				</port>
			</output>
		</layer>
		<layer id="249" name="Multiply_8381_compressed" type="Const" version="opset1">
			<data element_type="f16" shape="184, 1, 1, 1, 3, 3" offset="701560" size="3312" />
			<output>
				<port id="0" precision="FP16">
					<dim>184</dim>
					<dim>1</dim>
					<dim>1</dim>
					<dim>1</dim>
					<dim>3</dim>
					<dim>3</dim>
				</port>
			</output>
		</layer>
		<layer id="250" name="Multiply_8381" type="Convert" version="opset1">
			<data destination_type="f32" />
			<rt_info>
				<attribute name="decompression" version="0" />
			</rt_info>
			<input>
				<port id="0" precision="FP16">
					<dim>184</dim>
					<dim>1</dim>
					<dim>1</dim>
					<dim>1</dim>
					<dim>3</dim>
					<dim>3</dim>
				</port>
			</input>
			<output>
				<port id="1" precision="FP32">
					<dim>184</dim>
					<dim>1</dim>
					<dim>1</dim>
					<dim>1</dim>
					<dim>3</dim>
					<dim>3</dim>
				</port>
			</output>
		</layer>
		<layer id="251" name="Multiply_8057" type="GroupConvolution" version="opset1">
			<data strides="1, 1, 1" pads_begin="0, 1, 1" pads_end="0, 1, 1" dilations="1, 1, 1" auto_pad="explicit" />
			<input>
				<port id="0" precision="FP32">
					<dim>1</dim>
					<dim>184</dim>
					<dim>4</dim>
					<dim>14</dim>
					<dim>14</dim>
				</port>
				<port id="1" precision="FP32">
					<dim>184</dim>
					<dim>1</dim>
					<dim>1</dim>
					<dim>1</dim>
					<dim>3</dim>
					<dim>3</dim>
				</port>
			</input>
			<output>
				<port id="2" precision="FP32" names="499">
					<dim>1</dim>
					<dim>184</dim>
					<dim>4</dim>
					<dim>14</dim>
					<dim>14</dim>
				</port>
			</output>
		</layer>
		<layer id="252" name="Constant_8062_compressed" type="Const" version="opset1">
			<data element_type="f16" shape="1, 184, 1, 1, 1" offset="704872" size="368" />
			<output>
				<port id="0" precision="FP16">
					<dim>1</dim>
					<dim>184</dim>
					<dim>1</dim>
					<dim>1</dim>
					<dim>1</dim>
				</port>
			</output>
		</layer>
		<layer id="253" name="Constant_8062" type="Convert" version="opset1">
			<data destination_type="f32" />
			<rt_info>
				<attribute name="decompression" version="0" />
			</rt_info>
			<input>
				<port id="0" precision="FP16">
					<dim>1</dim>
					<dim>184</dim>
					<dim>1</dim>
					<dim>1</dim>
					<dim>1</dim>
				</port>
			</input>
			<output>
				<port id="1" precision="FP32">
					<dim>1</dim>
					<dim>184</dim>
					<dim>1</dim>
					<dim>1</dim>
					<dim>1</dim>
				</port>
			</output>
		</layer>
		<layer id="254" name="BatchNormalization_157" type="Add" version="opset1">
			<data auto_broadcast="numpy" />
			<input>
				<port id="0" precision="FP32">
					<dim>1</dim>
					<dim>184</dim>
					<dim>4</dim>
					<dim>14</dim>
					<dim>14</dim>
				</port>
				<port id="1" precision="FP32">
					<dim>1</dim>
					<dim>184</dim>
					<dim>1</dim>
					<dim>1</dim>
					<dim>1</dim>
				</port>
			</input>
			<output>
				<port id="2" precision="FP32" names="500">
					<dim>1</dim>
					<dim>184</dim>
					<dim>4</dim>
					<dim>14</dim>
					<dim>14</dim>
				</port>
			</output>
		</layer>
		<layer id="255" name="Mul_163" type="HSwish" version="opset4">
			<input>
				<port id="0" precision="FP32">
					<dim>1</dim>
					<dim>184</dim>
					<dim>4</dim>
					<dim>14</dim>
					<dim>14</dim>
				</port>
			</input>
			<output>
				<port id="1" precision="FP32" names="506">
					<dim>1</dim>
					<dim>184</dim>
					<dim>4</dim>
					<dim>14</dim>
					<dim>14</dim>
				</port>
			</output>
		</layer>
		<layer id="256" name="Multiply_8386_compressed" type="Const" version="opset1">
			<data element_type="f16" shape="80, 184, 5, 1, 1" offset="705240" size="147200" />
			<output>
				<port id="0" precision="FP16">
					<dim>80</dim>
					<dim>184</dim>
					<dim>5</dim>
					<dim>1</dim>
					<dim>1</dim>
				</port>
			</output>
		</layer>
		<layer id="257" name="Multiply_8386" type="Convert" version="opset1">
			<data destination_type="f32" />
			<rt_info>
				<attribute name="decompression" version="0" />
			</rt_info>
			<input>
				<port id="0" precision="FP16">
					<dim>80</dim>
					<dim>184</dim>
					<dim>5</dim>
					<dim>1</dim>
					<dim>1</dim>
				</port>
			</input>
			<output>
				<port id="1" precision="FP32">
					<dim>80</dim>
					<dim>184</dim>
					<dim>5</dim>
					<dim>1</dim>
					<dim>1</dim>
				</port>
			</output>
		</layer>
		<layer id="258" name="Multiply_8064" type="Convolution" version="opset1">
			<data strides="1, 1, 1" dilations="1, 1, 1" pads_begin="2, 0, 0" pads_end="2, 0, 0" auto_pad="explicit" />
			<input>
				<port id="0" precision="FP32">
					<dim>1</dim>
					<dim>184</dim>
					<dim>4</dim>
					<dim>14</dim>
					<dim>14</dim>
				</port>
				<port id="1" precision="FP32">
					<dim>80</dim>
					<dim>184</dim>
					<dim>5</dim>
					<dim>1</dim>
					<dim>1</dim>
				</port>
			</input>
			<output>
				<port id="2" precision="FP32">
					<dim>1</dim>
					<dim>80</dim>
					<dim>4</dim>
					<dim>14</dim>
					<dim>14</dim>
				</port>
			</output>
		</layer>
		<layer id="259" name="Constant_8069_compressed" type="Const" version="opset1">
			<data element_type="f16" shape="1, 80, 1, 1, 1" offset="852440" size="160" />
			<output>
				<port id="0" precision="FP16">
					<dim>1</dim>
					<dim>80</dim>
					<dim>1</dim>
					<dim>1</dim>
					<dim>1</dim>
				</port>
			</output>
		</layer>
		<layer id="260" name="Constant_8069" type="Convert" version="opset1">
			<data destination_type="f32" />
			<rt_info>
				<attribute name="decompression" version="0" />
			</rt_info>
			<input>
				<port id="0" precision="FP16">
					<dim>1</dim>
					<dim>80</dim>
					<dim>1</dim>
					<dim>1</dim>
					<dim>1</dim>
				</port>
			</input>
			<output>
				<port id="1" precision="FP32">
					<dim>1</dim>
					<dim>80</dim>
					<dim>1</dim>
					<dim>1</dim>
					<dim>1</dim>
				</port>
			</output>
		</layer>
		<layer id="261" name="BatchNormalization_165" type="Add" version="opset1">
			<data auto_broadcast="numpy" />
			<input>
				<port id="0" precision="FP32">
					<dim>1</dim>
					<dim>80</dim>
					<dim>4</dim>
					<dim>14</dim>
					<dim>14</dim>
				</port>
				<port id="1" precision="FP32">
					<dim>1</dim>
					<dim>80</dim>
					<dim>1</dim>
					<dim>1</dim>
					<dim>1</dim>
				</port>
			</input>
			<output>
				<port id="2" precision="FP32" names="508">
					<dim>1</dim>
					<dim>80</dim>
					<dim>4</dim>
					<dim>14</dim>
					<dim>14</dim>
				</port>
			</output>
		</layer>
		<layer id="262" name="Add_166" type="Add" version="opset1">
			<data auto_broadcast="numpy" />
			<input>
				<port id="0" precision="FP32">
					<dim>1</dim>
					<dim>80</dim>
					<dim>4</dim>
					<dim>14</dim>
					<dim>14</dim>
				</port>
				<port id="1" precision="FP32">
					<dim>1</dim>
					<dim>80</dim>
					<dim>4</dim>
					<dim>14</dim>
					<dim>14</dim>
				</port>
			</input>
			<output>
				<port id="2" precision="FP32" names="509">
					<dim>1</dim>
					<dim>80</dim>
					<dim>4</dim>
					<dim>14</dim>
					<dim>14</dim>
				</port>
			</output>
		</layer>
		<layer id="263" name="Multiply_8392_compressed" type="Const" version="opset1">
			<data element_type="f16" shape="80, 1, 1, 1, 3, 3" offset="852600" size="1440" />
			<output>
				<port id="0" precision="FP16">
					<dim>80</dim>
					<dim>1</dim>
					<dim>1</dim>
					<dim>1</dim>
					<dim>3</dim>
					<dim>3</dim>
				</port>
			</output>
		</layer>
		<layer id="264" name="Multiply_8392" type="Convert" version="opset1">
			<data destination_type="f32" />
			<rt_info>
				<attribute name="decompression" version="0" />
			</rt_info>
			<input>
				<port id="0" precision="FP16">
					<dim>80</dim>
					<dim>1</dim>
					<dim>1</dim>
					<dim>1</dim>
					<dim>3</dim>
					<dim>3</dim>
				</port>
			</input>
			<output>
				<port id="1" precision="FP32">
					<dim>80</dim>
					<dim>1</dim>
					<dim>1</dim>
					<dim>1</dim>
					<dim>3</dim>
					<dim>3</dim>
				</port>
			</output>
		</layer>
		<layer id="265" name="Multiply_8071" type="GroupConvolution" version="opset1">
			<data strides="1, 1, 1" pads_begin="0, 1, 1" pads_end="0, 1, 1" dilations="1, 1, 1" auto_pad="explicit" />
			<input>
				<port id="0" precision="FP32">
					<dim>1</dim>
					<dim>80</dim>
					<dim>4</dim>
					<dim>14</dim>
					<dim>14</dim>
				</port>
				<port id="1" precision="FP32">
					<dim>80</dim>
					<dim>1</dim>
					<dim>1</dim>
					<dim>1</dim>
					<dim>3</dim>
					<dim>3</dim>
				</port>
			</input>
			<output>
				<port id="2" precision="FP32" names="510">
					<dim>1</dim>
					<dim>80</dim>
					<dim>4</dim>
					<dim>14</dim>
					<dim>14</dim>
				</port>
			</output>
		</layer>
		<layer id="266" name="Constant_8076_compressed" type="Const" version="opset1">
			<data element_type="f16" shape="1, 80, 1, 1, 1" offset="854040" size="160" />
			<output>
				<port id="0" precision="FP16">
					<dim>1</dim>
					<dim>80</dim>
					<dim>1</dim>
					<dim>1</dim>
					<dim>1</dim>
				</port>
			</output>
		</layer>
		<layer id="267" name="Constant_8076" type="Convert" version="opset1">
			<data destination_type="f32" />
			<rt_info>
				<attribute name="decompression" version="0" />
			</rt_info>
			<input>
				<port id="0" precision="FP16">
					<dim>1</dim>
					<dim>80</dim>
					<dim>1</dim>
					<dim>1</dim>
					<dim>1</dim>
				</port>
			</input>
			<output>
				<port id="1" precision="FP32">
					<dim>1</dim>
					<dim>80</dim>
					<dim>1</dim>
					<dim>1</dim>
					<dim>1</dim>
				</port>
			</output>
		</layer>
		<layer id="268" name="BatchNormalization_168" type="Add" version="opset1">
			<data auto_broadcast="numpy" />
			<input>
				<port id="0" precision="FP32">
					<dim>1</dim>
					<dim>80</dim>
					<dim>4</dim>
					<dim>14</dim>
					<dim>14</dim>
				</port>
				<port id="1" precision="FP32">
					<dim>1</dim>
					<dim>80</dim>
					<dim>1</dim>
					<dim>1</dim>
					<dim>1</dim>
				</port>
			</input>
			<output>
				<port id="2" precision="FP32" names="511">
					<dim>1</dim>
					<dim>80</dim>
					<dim>4</dim>
					<dim>14</dim>
					<dim>14</dim>
				</port>
			</output>
		</layer>
		<layer id="269" name="Mul_174" type="HSwish" version="opset4">
			<input>
				<port id="0" precision="FP32">
					<dim>1</dim>
					<dim>80</dim>
					<dim>4</dim>
					<dim>14</dim>
					<dim>14</dim>
				</port>
			</input>
			<output>
				<port id="1" precision="FP32" names="517">
					<dim>1</dim>
					<dim>80</dim>
					<dim>4</dim>
					<dim>14</dim>
					<dim>14</dim>
				</port>
			</output>
		</layer>
		<layer id="270" name="Multiply_8393_compressed" type="Const" version="opset1">
			<data element_type="f16" shape="1, 80, 1, 1, 1" offset="854200" size="160" />
			<output>
				<port id="0" precision="FP16">
					<dim>1</dim>
					<dim>80</dim>
					<dim>1</dim>
					<dim>1</dim>
					<dim>1</dim>
				</port>
			</output>
		</layer>
		<layer id="271" name="Multiply_8393" type="Convert" version="opset1">
			<data destination_type="f32" />
			<rt_info>
				<attribute name="decompression" version="0" />
			</rt_info>
			<input>
				<port id="0" precision="FP16">
					<dim>1</dim>
					<dim>80</dim>
					<dim>1</dim>
					<dim>1</dim>
					<dim>1</dim>
				</port>
			</input>
			<output>
				<port id="1" precision="FP32">
					<dim>1</dim>
					<dim>80</dim>
					<dim>1</dim>
					<dim>1</dim>
					<dim>1</dim>
				</port>
			</output>
		</layer>
		<layer id="272" name="Multiply_8078" type="Convolution" version="opset1">
			<data strides="1, 1, 1" dilations="1, 1, 1" pads_begin="0, 0, 0" pads_end="0, 0, 0" auto_pad="explicit" />
			<input>
				<port id="0" precision="FP32">
					<dim>1</dim>
					<dim>80</dim>
					<dim>4</dim>
					<dim>14</dim>
					<dim>14</dim>
				</port>
				<port id="1" precision="FP32">
					<dim>1</dim>
					<dim>80</dim>
					<dim>1</dim>
					<dim>1</dim>
					<dim>1</dim>
				</port>
			</input>
			<output>
				<port id="2" precision="FP32">
					<dim>1</dim>
					<dim>1</dim>
					<dim>4</dim>
					<dim>14</dim>
					<dim>14</dim>
				</port>
			</output>
		</layer>
		<layer id="273" name="Constant_8083_compressed" type="Const" version="opset1">
			<data element_type="f16" shape="1, 1, 1, 1, 1" offset="854360" size="2" />
			<output>
				<port id="0" precision="FP16">
					<dim>1</dim>
					<dim>1</dim>
					<dim>1</dim>
					<dim>1</dim>
					<dim>1</dim>
				</port>
			</output>
		</layer>
		<layer id="274" name="Constant_8083" type="Convert" version="opset1">
			<data destination_type="f32" />
			<rt_info>
				<attribute name="decompression" version="0" />
			</rt_info>
			<input>
				<port id="0" precision="FP16">
					<dim>1</dim>
					<dim>1</dim>
					<dim>1</dim>
					<dim>1</dim>
					<dim>1</dim>
				</port>
			</input>
			<output>
				<port id="1" precision="FP32">
					<dim>1</dim>
					<dim>1</dim>
					<dim>1</dim>
					<dim>1</dim>
					<dim>1</dim>
				</port>
			</output>
		</layer>
		<layer id="275" name="BatchNormalization_176" type="Add" version="opset1">
			<data auto_broadcast="numpy" />
			<input>
				<port id="0" precision="FP32">
					<dim>1</dim>
					<dim>1</dim>
					<dim>4</dim>
					<dim>14</dim>
					<dim>14</dim>
				</port>
				<port id="1" precision="FP32">
					<dim>1</dim>
					<dim>1</dim>
					<dim>1</dim>
					<dim>1</dim>
					<dim>1</dim>
				</port>
			</input>
			<output>
				<port id="2" precision="FP32" names="519,521">
					<dim>1</dim>
					<dim>1</dim>
					<dim>4</dim>
					<dim>14</dim>
					<dim>14</dim>
				</port>
			</output>
		</layer>
		<layer id="276" name="Sigmoid_179" type="Sigmoid" version="opset1">
			<input>
				<port id="0" precision="FP32">
					<dim>1</dim>
					<dim>1</dim>
					<dim>4</dim>
					<dim>14</dim>
					<dim>14</dim>
				</port>
			</input>
			<output>
				<port id="1" precision="FP32" names="522">
					<dim>1</dim>
					<dim>1</dim>
					<dim>4</dim>
					<dim>14</dim>
					<dim>14</dim>
				</port>
			</output>
		</layer>
		<layer id="277" name="Mul_180" type="Multiply" version="opset1">
			<data auto_broadcast="numpy" />
			<input>
				<port id="0" precision="FP32">
					<dim>1</dim>
					<dim>1</dim>
					<dim>4</dim>
					<dim>14</dim>
					<dim>14</dim>
				</port>
				<port id="1" precision="FP32">
					<dim>1</dim>
					<dim>80</dim>
					<dim>4</dim>
					<dim>14</dim>
					<dim>14</dim>
				</port>
			</input>
			<output>
				<port id="2" precision="FP32" names="523">
					<dim>1</dim>
					<dim>80</dim>
					<dim>4</dim>
					<dim>14</dim>
					<dim>14</dim>
				</port>
			</output>
		</layer>
		<layer id="278" name="Add_181" type="Add" version="opset1">
			<data auto_broadcast="numpy" />
			<input>
				<port id="0" precision="FP32">
					<dim>1</dim>
					<dim>80</dim>
					<dim>4</dim>
					<dim>14</dim>
					<dim>14</dim>
				</port>
				<port id="1" precision="FP32">
					<dim>1</dim>
					<dim>80</dim>
					<dim>4</dim>
					<dim>14</dim>
					<dim>14</dim>
				</port>
			</input>
			<output>
				<port id="2" precision="FP32" names="524">
					<dim>1</dim>
					<dim>80</dim>
					<dim>4</dim>
					<dim>14</dim>
					<dim>14</dim>
				</port>
			</output>
		</layer>
		<layer id="279" name="Multiply_8399_compressed" type="Const" version="opset1">
			<data element_type="f16" shape="480, 80, 1, 1, 1" offset="854362" size="76800" />
			<output>
				<port id="0" precision="FP16">
					<dim>480</dim>
					<dim>80</dim>
					<dim>1</dim>
					<dim>1</dim>
					<dim>1</dim>
				</port>
			</output>
		</layer>
		<layer id="280" name="Multiply_8399" type="Convert" version="opset1">
			<data destination_type="f32" />
			<rt_info>
				<attribute name="decompression" version="0" />
			</rt_info>
			<input>
				<port id="0" precision="FP16">
					<dim>480</dim>
					<dim>80</dim>
					<dim>1</dim>
					<dim>1</dim>
					<dim>1</dim>
				</port>
			</input>
			<output>
				<port id="1" precision="FP32">
					<dim>480</dim>
					<dim>80</dim>
					<dim>1</dim>
					<dim>1</dim>
					<dim>1</dim>
				</port>
			</output>
		</layer>
		<layer id="281" name="Multiply_8085" type="Convolution" version="opset1">
			<data strides="1, 1, 1" dilations="1, 1, 1" pads_begin="0, 0, 0" pads_end="0, 0, 0" auto_pad="explicit" />
			<input>
				<port id="0" precision="FP32">
					<dim>1</dim>
					<dim>80</dim>
					<dim>4</dim>
					<dim>14</dim>
					<dim>14</dim>
				</port>
				<port id="1" precision="FP32">
					<dim>480</dim>
					<dim>80</dim>
					<dim>1</dim>
					<dim>1</dim>
					<dim>1</dim>
				</port>
			</input>
			<output>
				<port id="2" precision="FP32">
					<dim>1</dim>
					<dim>480</dim>
					<dim>4</dim>
					<dim>14</dim>
					<dim>14</dim>
				</port>
			</output>
		</layer>
		<layer id="282" name="Constant_8090_compressed" type="Const" version="opset1">
			<data element_type="f16" shape="1, 480, 1, 1, 1" offset="931162" size="960" />
			<output>
				<port id="0" precision="FP16">
					<dim>1</dim>
					<dim>480</dim>
					<dim>1</dim>
					<dim>1</dim>
					<dim>1</dim>
				</port>
			</output>
		</layer>
		<layer id="283" name="Constant_8090" type="Convert" version="opset1">
			<data destination_type="f32" />
			<rt_info>
				<attribute name="decompression" version="0" />
			</rt_info>
			<input>
				<port id="0" precision="FP16">
					<dim>1</dim>
					<dim>480</dim>
					<dim>1</dim>
					<dim>1</dim>
					<dim>1</dim>
				</port>
			</input>
			<output>
				<port id="1" precision="FP32">
					<dim>1</dim>
					<dim>480</dim>
					<dim>1</dim>
					<dim>1</dim>
					<dim>1</dim>
				</port>
			</output>
		</layer>
		<layer id="284" name="BatchNormalization_183" type="Add" version="opset1">
			<data auto_broadcast="numpy" />
			<input>
				<port id="0" precision="FP32">
					<dim>1</dim>
					<dim>480</dim>
					<dim>4</dim>
					<dim>14</dim>
					<dim>14</dim>
				</port>
				<port id="1" precision="FP32">
					<dim>1</dim>
					<dim>480</dim>
					<dim>1</dim>
					<dim>1</dim>
					<dim>1</dim>
				</port>
			</input>
			<output>
				<port id="2" precision="FP32" names="526">
					<dim>1</dim>
					<dim>480</dim>
					<dim>4</dim>
					<dim>14</dim>
					<dim>14</dim>
				</port>
			</output>
		</layer>
		<layer id="285" name="Mul_189" type="HSwish" version="opset4">
			<input>
				<port id="0" precision="FP32">
					<dim>1</dim>
					<dim>480</dim>
					<dim>4</dim>
					<dim>14</dim>
					<dim>14</dim>
				</port>
			</input>
			<output>
				<port id="1" precision="FP32" names="532">
					<dim>1</dim>
					<dim>480</dim>
					<dim>4</dim>
					<dim>14</dim>
					<dim>14</dim>
				</port>
			</output>
		</layer>
		<layer id="286" name="Multiply_8405_compressed" type="Const" version="opset1">
			<data element_type="f16" shape="480, 1, 1, 1, 3, 3" offset="932122" size="8640" />
			<output>
				<port id="0" precision="FP16">
					<dim>480</dim>
					<dim>1</dim>
					<dim>1</dim>
					<dim>1</dim>
					<dim>3</dim>
					<dim>3</dim>
				</port>
			</output>
		</layer>
		<layer id="287" name="Multiply_8405" type="Convert" version="opset1">
			<data destination_type="f32" />
			<rt_info>
				<attribute name="decompression" version="0" />
			</rt_info>
			<input>
				<port id="0" precision="FP16">
					<dim>480</dim>
					<dim>1</dim>
					<dim>1</dim>
					<dim>1</dim>
					<dim>3</dim>
					<dim>3</dim>
				</port>
			</input>
			<output>
				<port id="1" precision="FP32">
					<dim>480</dim>
					<dim>1</dim>
					<dim>1</dim>
					<dim>1</dim>
					<dim>3</dim>
					<dim>3</dim>
				</port>
			</output>
		</layer>
		<layer id="288" name="Multiply_8092" type="GroupConvolution" version="opset1">
			<data strides="1, 1, 1" pads_begin="0, 1, 1" pads_end="0, 1, 1" dilations="1, 1, 1" auto_pad="explicit" />
			<input>
				<port id="0" precision="FP32">
					<dim>1</dim>
					<dim>480</dim>
					<dim>4</dim>
					<dim>14</dim>
					<dim>14</dim>
				</port>
				<port id="1" precision="FP32">
					<dim>480</dim>
					<dim>1</dim>
					<dim>1</dim>
					<dim>1</dim>
					<dim>3</dim>
					<dim>3</dim>
				</port>
			</input>
			<output>
				<port id="2" precision="FP32" names="533">
					<dim>1</dim>
					<dim>480</dim>
					<dim>4</dim>
					<dim>14</dim>
					<dim>14</dim>
				</port>
			</output>
		</layer>
		<layer id="289" name="Constant_8097_compressed" type="Const" version="opset1">
			<data element_type="f16" shape="1, 480, 1, 1, 1" offset="940762" size="960" />
			<output>
				<port id="0" precision="FP16">
					<dim>1</dim>
					<dim>480</dim>
					<dim>1</dim>
					<dim>1</dim>
					<dim>1</dim>
				</port>
			</output>
		</layer>
		<layer id="290" name="Constant_8097" type="Convert" version="opset1">
			<data destination_type="f32" />
			<rt_info>
				<attribute name="decompression" version="0" />
			</rt_info>
			<input>
				<port id="0" precision="FP16">
					<dim>1</dim>
					<dim>480</dim>
					<dim>1</dim>
					<dim>1</dim>
					<dim>1</dim>
				</port>
			</input>
			<output>
				<port id="1" precision="FP32">
					<dim>1</dim>
					<dim>480</dim>
					<dim>1</dim>
					<dim>1</dim>
					<dim>1</dim>
				</port>
			</output>
		</layer>
		<layer id="291" name="BatchNormalization_191" type="Add" version="opset1">
			<data auto_broadcast="numpy" />
			<input>
				<port id="0" precision="FP32">
					<dim>1</dim>
					<dim>480</dim>
					<dim>4</dim>
					<dim>14</dim>
					<dim>14</dim>
				</port>
				<port id="1" precision="FP32">
					<dim>1</dim>
					<dim>480</dim>
					<dim>1</dim>
					<dim>1</dim>
					<dim>1</dim>
				</port>
			</input>
			<output>
				<port id="2" precision="FP32" names="534,535">
					<dim>1</dim>
					<dim>480</dim>
					<dim>4</dim>
					<dim>14</dim>
					<dim>14</dim>
				</port>
			</output>
		</layer>
		<layer id="292" name="AveragePool_193" type="AvgPool" version="opset1">
			<data kernel="1, 14, 14" strides="1, 1, 1" pads_begin="0, 0, 0" pads_end="0, 0, 0" exclude-pad="true" auto_pad="explicit" rounding_type="floor" />
			<input>
				<port id="0" precision="FP32">
					<dim>1</dim>
					<dim>480</dim>
					<dim>4</dim>
					<dim>14</dim>
					<dim>14</dim>
				</port>
			</input>
			<output>
				<port id="1" precision="FP32" names="536">
					<dim>1</dim>
					<dim>480</dim>
					<dim>4</dim>
					<dim>1</dim>
					<dim>1</dim>
				</port>
			</output>
		</layer>
		<layer id="293" name="backbone.features.11.conv.5.fc.0.weight_compressed" type="Const" version="opset1">
			<data element_type="f16" shape="120, 480, 1, 1, 1" offset="941722" size="115200" />
			<output>
				<port id="0" precision="FP16">
					<dim>120</dim>
					<dim>480</dim>
					<dim>1</dim>
					<dim>1</dim>
					<dim>1</dim>
				</port>
			</output>
		</layer>
		<layer id="294" name="backbone.features.11.conv.5.fc.0.weight" type="Convert" version="opset1">
			<data destination_type="f32" />
			<rt_info>
				<attribute name="decompression" version="0" />
			</rt_info>
			<input>
				<port id="0" precision="FP16">
					<dim>120</dim>
					<dim>480</dim>
					<dim>1</dim>
					<dim>1</dim>
					<dim>1</dim>
				</port>
			</input>
			<output>
				<port id="1" precision="FP32" names="backbone.features.11.conv.5.fc.0.weight">
					<dim>120</dim>
					<dim>480</dim>
					<dim>1</dim>
					<dim>1</dim>
					<dim>1</dim>
				</port>
			</output>
		</layer>
		<layer id="295" name="Conv_194/WithoutBiases" type="Convolution" version="opset1">
			<data strides="1, 1, 1" dilations="1, 1, 1" pads_begin="0, 0, 0" pads_end="0, 0, 0" auto_pad="explicit" />
			<input>
				<port id="0" precision="FP32">
					<dim>1</dim>
					<dim>480</dim>
					<dim>4</dim>
					<dim>1</dim>
					<dim>1</dim>
				</port>
				<port id="1" precision="FP32">
					<dim>120</dim>
					<dim>480</dim>
					<dim>1</dim>
					<dim>1</dim>
					<dim>1</dim>
				</port>
			</input>
			<output>
				<port id="2" precision="FP32">
					<dim>1</dim>
					<dim>120</dim>
					<dim>4</dim>
					<dim>1</dim>
					<dim>1</dim>
				</port>
			</output>
		</layer>
		<layer id="296" name="Reshape_1204_compressed" type="Const" version="opset1">
			<data element_type="f16" shape="1, 120, 1, 1, 1" offset="1056922" size="240" />
			<output>
				<port id="0" precision="FP16">
					<dim>1</dim>
					<dim>120</dim>
					<dim>1</dim>
					<dim>1</dim>
					<dim>1</dim>
				</port>
			</output>
		</layer>
		<layer id="297" name="Reshape_1204" type="Convert" version="opset1">
			<data destination_type="f32" />
			<rt_info>
				<attribute name="decompression" version="0" />
			</rt_info>
			<input>
				<port id="0" precision="FP16">
					<dim>1</dim>
					<dim>120</dim>
					<dim>1</dim>
					<dim>1</dim>
					<dim>1</dim>
				</port>
			</input>
			<output>
				<port id="1" precision="FP32">
					<dim>1</dim>
					<dim>120</dim>
					<dim>1</dim>
					<dim>1</dim>
					<dim>1</dim>
				</port>
			</output>
		</layer>
		<layer id="298" name="Conv_194" type="Add" version="opset1">
			<data auto_broadcast="numpy" />
			<input>
				<port id="0" precision="FP32">
					<dim>1</dim>
					<dim>120</dim>
					<dim>4</dim>
					<dim>1</dim>
					<dim>1</dim>
				</port>
				<port id="1" precision="FP32">
					<dim>1</dim>
					<dim>120</dim>
					<dim>1</dim>
					<dim>1</dim>
					<dim>1</dim>
				</port>
			</input>
			<output>
				<port id="2" precision="FP32" names="537">
					<dim>1</dim>
					<dim>120</dim>
					<dim>4</dim>
					<dim>1</dim>
					<dim>1</dim>
				</port>
			</output>
		</layer>
		<layer id="299" name="Relu_195" type="ReLU" version="opset1">
			<input>
				<port id="0" precision="FP32">
					<dim>1</dim>
					<dim>120</dim>
					<dim>4</dim>
					<dim>1</dim>
					<dim>1</dim>
				</port>
			</input>
			<output>
				<port id="1" precision="FP32" names="538">
					<dim>1</dim>
					<dim>120</dim>
					<dim>4</dim>
					<dim>1</dim>
					<dim>1</dim>
				</port>
			</output>
		</layer>
…
					<dim>1</dim>
					<dim>960</dim>
					<dim>1</dim>
					<dim>1</dim>
					<dim>1</dim>
				</port>
			</output>
		</layer>
		<layer id="481" name="Constant_8209" type="Convert" version="opset1">
			<data destination_type="f32" />
			<rt_info>
				<attribute name="decompression" version="0" />
			</rt_info>
			<input>
				<port id="0" precision="FP16">
					<dim>1</dim>
					<dim>960</dim>
					<dim>1</dim>
					<dim>1</dim>
					<dim>1</dim>
				</port>
			</input>
			<output>
				<port id="1" precision="FP32">
					<dim>1</dim>
					<dim>960</dim>
					<dim>1</dim>
					<dim>1</dim>
					<dim>1</dim>
				</port>
			</output>
		</layer>
		<layer id="482" name="BatchNormalization_345" type="Add" version="opset1">
			<data auto_broadcast="numpy" />
			<input>
				<port id="0" precision="FP32">
					<dim>1</dim>
					<dim>960</dim>
					<dim>4</dim>
					<dim>7</dim>
					<dim>7</dim>
				</port>
				<port id="1" precision="FP32">
					<dim>1</dim>
					<dim>960</dim>
					<dim>1</dim>
					<dim>1</dim>
					<dim>1</dim>
				</port>
			</input>
			<output>
				<port id="2" precision="FP32" names="688">
					<dim>1</dim>
					<dim>960</dim>
					<dim>4</dim>
					<dim>7</dim>
					<dim>7</dim>
				</port>
			</output>
		</layer>
		<layer id="483" name="Mul_351" type="HSwish" version="opset4">
			<input>
				<port id="0" precision="FP32">
					<dim>1</dim>
					<dim>960</dim>
					<dim>4</dim>
					<dim>7</dim>
					<dim>7</dim>
				</port>
			</input>
			<output>
				<port id="1" precision="FP32" names="694,695">
					<dim>1</dim>
					<dim>960</dim>
					<dim>4</dim>
					<dim>7</dim>
					<dim>7</dim>
				</port>
			</output>
		</layer>
		<layer id="484" name="AveragePool_353" type="AvgPool" version="opset1">
			<data kernel="4, 7, 7" strides="1, 1, 1" pads_begin="0, 0, 0" pads_end="0, 0, 0" exclude-pad="true" auto_pad="explicit" rounding_type="floor" />
			<input>
				<port id="0" precision="FP32">
					<dim>1</dim>
					<dim>960</dim>
					<dim>4</dim>
					<dim>7</dim>
					<dim>7</dim>
				</port>
			</input>
			<output>
				<port id="1" precision="FP32" names="696">
					<dim>1</dim>
					<dim>960</dim>
					<dim>1</dim>
					<dim>1</dim>
					<dim>1</dim>
				</port>
			</output>
		</layer>
		<layer id="485" name="Multiply_8497_compressed" type="Const" version="opset1">
			<data element_type="f16" shape="256, 960, 1, 1, 1" offset="7719644" size="491520" />
			<output>
				<port id="0" precision="FP16">
					<dim>256</dim>
					<dim>960</dim>
					<dim>1</dim>
					<dim>1</dim>
					<dim>1</dim>
				</port>
			</output>
		</layer>
		<layer id="486" name="Multiply_8497" type="Convert" version="opset1">
			<data destination_type="f32" />
			<rt_info>
				<attribute name="decompression" version="0" />
			</rt_info>
			<input>
				<port id="0" precision="FP16">
					<dim>256</dim>
					<dim>960</dim>
					<dim>1</dim>
					<dim>1</dim>
					<dim>1</dim>
				</port>
			</input>
			<output>
				<port id="1" precision="FP32">
					<dim>256</dim>
					<dim>960</dim>
					<dim>1</dim>
					<dim>1</dim>
					<dim>1</dim>
				</port>
			</output>
		</layer>
		<layer id="487" name="Multiply_8211" type="Convolution" version="opset1">
			<data strides="1, 1, 1" dilations="1, 1, 1" pads_begin="0, 0, 0" pads_end="0, 0, 0" auto_pad="explicit" />
			<input>
				<port id="0" precision="FP32">
					<dim>1</dim>
					<dim>960</dim>
					<dim>1</dim>
					<dim>1</dim>
					<dim>1</dim>
				</port>
				<port id="1" precision="FP32">
					<dim>256</dim>
					<dim>960</dim>
					<dim>1</dim>
					<dim>1</dim>
					<dim>1</dim>
				</port>
			</input>
			<output>
				<port id="2" precision="FP32">
					<dim>1</dim>
					<dim>256</dim>
					<dim>1</dim>
					<dim>1</dim>
					<dim>1</dim>
				</port>
			</output>
		</layer>
		<layer id="488" name="Constant_8216_compressed" type="Const" version="opset1">
			<data element_type="f16" shape="1, 256, 1, 1, 1" offset="8211164" size="512" />
			<output>
				<port id="0" precision="FP16">
					<dim>1</dim>
					<dim>256</dim>
					<dim>1</dim>
					<dim>1</dim>
					<dim>1</dim>
				</port>
			</output>
		</layer>
		<layer id="489" name="Constant_8216" type="Convert" version="opset1">
			<data destination_type="f32" />
			<rt_info>
				<attribute name="decompression" version="0" />
			</rt_info>
			<input>
				<port id="0" precision="FP16">
					<dim>1</dim>
					<dim>256</dim>
					<dim>1</dim>
					<dim>1</dim>
					<dim>1</dim>
				</port>
			</input>
			<output>
				<port id="1" precision="FP32">
					<dim>1</dim>
					<dim>256</dim>
					<dim>1</dim>
					<dim>1</dim>
					<dim>1</dim>
				</port>
			</output>
		</layer>
		<layer id="490" name="BatchNormalization_355" type="Add" version="opset1">
			<data auto_broadcast="numpy" />
			<input>
				<port id="0" precision="FP32">
					<dim>1</dim>
					<dim>256</dim>
					<dim>1</dim>
					<dim>1</dim>
					<dim>1</dim>
				</port>
				<port id="1" precision="FP32">
					<dim>1</dim>
					<dim>256</dim>
					<dim>1</dim>
					<dim>1</dim>
					<dim>1</dim>
				</port>
			</input>
			<output>
				<port id="2" precision="FP32" names="698">
					<dim>1</dim>
					<dim>256</dim>
					<dim>1</dim>
					<dim>1</dim>
					<dim>1</dim>
				</port>
			</output>
		</layer>
		<layer id="491" name="Constant_356" type="Const" version="opset1">
			<data element_type="i64" shape="2" offset="8211676" size="16" />
			<output>
				<port id="0" precision="I64" names="699">
					<dim>2</dim>
				</port>
			</output>
		</layer>
		<layer id="492" name="Reshape_357" type="Reshape" version="opset1">
			<data special_zero="true" />
			<input>
				<port id="0" precision="FP32">
					<dim>1</dim>
					<dim>256</dim>
					<dim>1</dim>
					<dim>1</dim>
					<dim>1</dim>
				</port>
				<port id="1" precision="I64">
					<dim>2</dim>
				</port>
			</input>
			<output>
				<port id="2" precision="FP32" names="700">
					<dim>1</dim>
					<dim>256</dim>
				</port>
			</output>
		</layer>
		<layer id="493" name="Constant_8761_compressed" type="Const" version="opset1">
			<data element_type="f16" shape="1, 1" offset="8211692" size="2" />
			<output>
				<port id="0" precision="FP16">
					<dim>1</dim>
					<dim>1</dim>
				</port>
			</output>
		</layer>
		<layer id="494" name="Constant_8761" type="Convert" version="opset1">
			<data destination_type="f32" />
			<rt_info>
				<attribute name="decompression" version="0" />
			</rt_info>
			<input>
				<port id="0" precision="FP16">
					<dim>1</dim>
					<dim>1</dim>
				</port>
			</input>
			<output>
				<port id="1" precision="FP32">
					<dim>1</dim>
					<dim>1</dim>
				</port>
			</output>
		</layer>
		<layer id="495" name="Power_1773" type="Power" version="opset1">
			<data auto_broadcast="numpy" />
			<input>
				<port id="0" precision="FP32">
					<dim>1</dim>
					<dim>256</dim>
				</port>
				<port id="1" precision="FP32">
					<dim>1</dim>
					<dim>1</dim>
				</port>
			</input>
			<output>
				<port id="2" precision="FP32">
					<dim>1</dim>
					<dim>256</dim>
				</port>
			</output>
		</layer>
		<layer id="496" name="Constant_1771" type="Const" version="opset1">
			<data element_type="i64" shape="" offset="8211694" size="8" />
			<output>
				<port id="0" precision="I64" />
			</output>
		</layer>
		<layer id="497" name="ReduceSum_1774" type="ReduceSum" version="opset1">
			<data keep_dims="true" />
			<input>
				<port id="0" precision="FP32">
					<dim>1</dim>
					<dim>256</dim>
				</port>
				<port id="1" precision="I64" />
			</input>
			<output>
				<port id="2" precision="FP32">
					<dim>1</dim>
					<dim>1</dim>
				</port>
			</output>
		</layer>
		<layer id="498" name="Sqrt_1777" type="Sqrt" version="opset1">
			<input>
				<port id="0" precision="FP32">
					<dim>1</dim>
					<dim>1</dim>
				</port>
			</input>
			<output>
				<port id="1" precision="FP32">
					<dim>1</dim>
					<dim>1</dim>
				</port>
			</output>
		</layer>
		<layer id="499" name="LpNormalization_358" type="Divide" version="opset1">
			<data auto_broadcast="numpy" m_pythondiv="true" />
			<input>
				<port id="0" precision="FP32">
					<dim>1</dim>
					<dim>256</dim>
				</port>
				<port id="1" precision="FP32">
					<dim>1</dim>
					<dim>1</dim>
				</port>
			</input>
			<output>
				<port id="2" precision="FP32" names="701">
					<dim>1</dim>
					<dim>256</dim>
				</port>
			</output>
		</layer>
		<layer id="500" name="Constant_1891" type="Const" version="opset1">
			<data element_type="i64" shape="1" offset="8211702" size="8" />
			<output>
				<port id="0" precision="I64">
					<dim>1</dim>
				</port>
			</output>
		</layer>
		<layer id="501" name="LpNormalization_362_compressed" type="Const" version="opset1">
			<data element_type="f16" shape="256, 27" offset="8211710" size="13824" />
			<output>
				<port id="0" precision="FP16">
					<dim>256</dim>
					<dim>27</dim>
				</port>
			</output>
		</layer>
		<layer id="502" name="LpNormalization_362" type="Convert" version="opset1">
			<data destination_type="f32" />
			<rt_info>
				<attribute name="decompression" version="0" />
			</rt_info>
			<input>
				<port id="0" precision="FP16">
					<dim>256</dim>
					<dim>27</dim>
				</port>
			</input>
			<output>
				<port id="1" precision="FP32" names="705">
					<dim>256</dim>
					<dim>27</dim>
				</port>
			</output>
		</layer>
		<layer id="503" name="ShapeOf_1889" type="ShapeOf" version="opset3">
			<data output_type="i64" />
			<input>
				<port id="0" precision="FP32">
					<dim>256</dim>
					<dim>27</dim>
				</port>
			</input>
			<output>
				<port id="1" precision="I64">
					<dim>2</dim>
				</port>
			</output>
		</layer>
		<layer id="504" name="Constant_1888" type="Const" version="opset1">
			<data element_type="i64" shape="1" offset="8225534" size="8" />
			<output>
				<port id="0" precision="I64">
					<dim>1</dim>
				</port>
			</output>
		</layer>
		<layer id="505" name="Constant_1887" type="Const" version="opset1">
			<data element_type="i64" shape="" offset="8225534" size="8" />
			<output>
				<port id="0" precision="I64" />
			</output>
		</layer>
		<layer id="506" name="Gather_1890" type="Gather" version="opset1">
			<input>
				<port id="0" precision="I64">
					<dim>2</dim>
				</port>
				<port id="1" precision="I64">
					<dim>1</dim>
				</port>
				<port id="2" precision="I64" />
			</input>
			<output>
				<port id="3" precision="I64">
					<dim>1</dim>
				</port>
			</output>
		</layer>
		<layer id="507" name="Constant_359" type="Concat" version="opset1">
			<data axis="0" />
			<input>
				<port id="0" precision="I64">
					<dim>1</dim>
				</port>
				<port id="1" precision="I64">
					<dim>1</dim>
				</port>
			</input>
			<output>
				<port id="2" precision="I64" names="702">
					<dim>2</dim>
				</port>
			</output>
		</layer>
		<layer id="508" name="Reshape_360" type="Reshape" version="opset1">
			<data special_zero="true" />
			<input>
				<port id="0" precision="FP32">
					<dim>1</dim>
					<dim>256</dim>
				</port>
				<port id="1" precision="I64">
					<dim>2</dim>
				</port>
			</input>
			<output>
				<port id="2" precision="FP32" names="703">
					<dim>1</dim>
					<dim>256</dim>
				</port>
			</output>
		</layer>
		<layer id="509" name="Transpose_4583_compressed" type="Const" version="opset1">
			<data element_type="f16" shape="27, 256" offset="8225542" size="13824" />
			<output>
				<port id="0" precision="FP16">
					<dim>27</dim>
					<dim>256</dim>
				</port>
			</output>
		</layer>
		<layer id="510" name="Transpose_4583" type="Convert" version="opset1">
			<data destination_type="f32" />
			<rt_info>
				<attribute name="decompression" version="0" />
			</rt_info>
			<input>
				<port id="0" precision="FP16">
					<dim>27</dim>
					<dim>256</dim>
				</port>
			</input>
			<output>
				<port id="1" precision="FP32">
					<dim>27</dim>
					<dim>256</dim>
				</port>
			</output>
		</layer>
		<layer id="511" name="output" type="MatMul" version="opset1">
			<data transpose_a="false" transpose_b="true" />
			<input>
				<port id="0" precision="FP32">
					<dim>1</dim>
					<dim>256</dim>
				</port>
				<port id="1" precision="FP32">
					<dim>27</dim>
					<dim>256</dim>
				</port>
			</input>
			<output>
				<port id="2" precision="FP32" names="output">
					<dim>1</dim>
					<dim>27</dim>
				</port>
			</output>
		</layer>
		<layer id="512" name="output/sink_port_0" type="Result" version="opset1">
			<input>
				<port id="0" precision="FP32">
					<dim>1</dim>
					<dim>27</dim>
				</port>
			</input>
		</layer>
	</layers>
	<edges>
		<edge from-layer="0" from-port="0" to-layer="3" to-port="0" />
		<edge from-layer="1" from-port="0" to-layer="2" to-port="0" />
		<edge from-layer="2" from-port="1" to-layer="3" to-port="1" />
		<edge from-layer="3" from-port="2" to-layer="6" to-port="0" />
		<edge from-layer="4" from-port="0" to-layer="5" to-port="0" />
		<edge from-layer="5" from-port="1" to-layer="6" to-port="1" />
		<edge from-layer="6" from-port="2" to-layer="9" to-port="0" />
		<edge from-layer="7" from-port="0" to-layer="8" to-port="0" />
		<edge from-layer="8" from-port="1" to-layer="9" to-port="1" />
		<edge from-layer="9" from-port="2" to-layer="12" to-port="0" />
		<edge from-layer="10" from-port="0" to-layer="11" to-port="0" />
		<edge from-layer="11" from-port="1" to-layer="12" to-port="1" />
		<edge from-layer="12" from-port="2" to-layer="13" to-port="0" />
		<edge from-layer="13" from-port="1" to-layer="27" to-port="0" />
		<edge from-layer="13" from-port="1" to-layer="16" to-port="0" />
		<edge from-layer="14" from-port="0" to-layer="15" to-port="0" />
		<edge from-layer="15" from-port="1" to-layer="16" to-port="1" />
		<edge from-layer="16" from-port="2" to-layer="19" to-port="0" />
		<edge from-layer="17" from-port="0" to-layer="18" to-port="0" />
		<edge from-layer="18" from-port="1" to-layer="19" to-port="1" />
		<edge from-layer="19" from-port="2" to-layer="20" to-port="0" />
		<edge from-layer="20" from-port="1" to-layer="23" to-port="0" />
		<edge from-layer="21" from-port="0" to-layer="22" to-port="0" />
		<edge from-layer="22" from-port="1" to-layer="23" to-port="1" />
		<edge from-layer="23" from-port="2" to-layer="26" to-port="0" />
		<edge from-layer="24" from-port="0" to-layer="25" to-port="0" />
		<edge from-layer="25" from-port="1" to-layer="26" to-port="1" />
		<edge from-layer="26" from-port="2" to-layer="27" to-port="1" />
		<edge from-layer="27" from-port="2" to-layer="30" to-port="0" />
		<edge from-layer="28" from-port="0" to-layer="29" to-port="0" />
		<edge from-layer="29" from-port="1" to-layer="30" to-port="1" />
		<edge from-layer="30" from-port="2" to-layer="33" to-port="0" />
		<edge from-layer="31" from-port="0" to-layer="32" to-port="0" />
		<edge from-layer="32" from-port="1" to-layer="33" to-port="1" />
		<edge from-layer="33" from-port="2" to-layer="34" to-port="0" />
		<edge from-layer="34" from-port="1" to-layer="37" to-port="0" />
		<edge from-layer="35" from-port="0" to-layer="36" to-port="0" />
		<edge from-layer="36" from-port="1" to-layer="37" to-port="1" />
		<edge from-layer="37" from-port="2" to-layer="40" to-port="0" />
		<edge from-layer="38" from-port="0" to-layer="39" to-port="0" />
		<edge from-layer="39" from-port="1" to-layer="40" to-port="1" />
		<edge from-layer="40" from-port="2" to-layer="41" to-port="0" />
		<edge from-layer="41" from-port="1" to-layer="44" to-port="0" />
		<edge from-layer="42" from-port="0" to-layer="43" to-port="0" />
		<edge from-layer="43" from-port="1" to-layer="44" to-port="1" />
		<edge from-layer="44" from-port="2" to-layer="47" to-port="0" />
		<edge from-layer="45" from-port="0" to-layer="46" to-port="0" />
		<edge from-layer="46" from-port="1" to-layer="47" to-port="1" />
		<edge from-layer="47" from-port="2" to-layer="48" to-port="0" />
		<edge from-layer="48" from-port="1" to-layer="69" to-port="0" />
		<edge from-layer="48" from-port="1" to-layer="51" to-port="0" />
		<edge from-layer="49" from-port="0" to-layer="50" to-port="0" />
		<edge from-layer="50" from-port="1" to-layer="51" to-port="1" />
		<edge from-layer="51" from-port="2" to-layer="54" to-port="0" />
		<edge from-layer="52" from-port="0" to-layer="53" to-port="0" />
		<edge from-layer="53" from-port="1" to-layer="54" to-port="1" />
		<edge from-layer="54" from-port="2" to-layer="55" to-port="0" />
		<edge from-layer="55" from-port="1" to-layer="58" to-port="0" />
		<edge from-layer="56" from-port="0" to-layer="57" to-port="0" />
		<edge from-layer="57" from-port="1" to-layer="58" to-port="1" />
		<edge from-layer="58" from-port="2" to-layer="61" to-port="0" />
		<edge from-layer="59" from-port="0" to-layer="60" to-port="0" />
		<edge from-layer="60" from-port="1" to-layer="61" to-port="1" />
		<edge from-layer="61" from-port="2" to-layer="62" to-port="0" />
		<edge from-layer="62" from-port="1" to-layer="65" to-port="0" />
		<edge from-layer="63" from-port="0" to-layer="64" to-port="0" />
		<edge from-layer="64" from-port="1" to-layer="65" to-port="1" />
		<edge from-layer="65" from-port="2" to-layer="68" to-port="0" />
		<edge from-layer="66" from-port="0" to-layer="67" to-port="0" />
		<edge from-layer="67" from-port="1" to-layer="68" to-port="1" />
		<edge from-layer="68" from-port="2" to-layer="69" to-port="1" />
		<edge from-layer="69" from-port="2" to-layer="72" to-port="0" />
		<edge from-layer="70" from-port="0" to-layer="71" to-port="0" />
		<edge from-layer="71" from-port="1" to-layer="72" to-port="1" />
		<edge from-layer="72" from-port="2" to-layer="75" to-port="0" />
		<edge from-layer="73" from-port="0" to-layer="74" to-port="0" />
		<edge from-layer="74" from-port="1" to-layer="75" to-port="1" />
		<edge from-layer="75" from-port="2" to-layer="76" to-port="0" />
		<edge from-layer="76" from-port="1" to-layer="79" to-port="0" />
		<edge from-layer="77" from-port="0" to-layer="78" to-port="0" />
		<edge from-layer="78" from-port="1" to-layer="79" to-port="1" />
		<edge from-layer="79" from-port="2" to-layer="82" to-port="0" />
		<edge from-layer="80" from-port="0" to-layer="81" to-port="0" />
		<edge from-layer="81" from-port="1" to-layer="82" to-port="1" />
		<edge from-layer="82" from-port="2" to-layer="98" to-port="1" />
		<edge from-layer="82" from-port="2" to-layer="83" to-port="0" />
		<edge from-layer="83" from-port="1" to-layer="86" to-port="0" />
		<edge from-layer="84" from-port="0" to-layer="85" to-port="0" />
		<edge from-layer="85" from-port="1" to-layer="86" to-port="1" />
		<edge from-layer="86" from-port="2" to-layer="89" to-port="0" />
		<edge from-layer="87" from-port="0" to-layer="88" to-port="0" />
		<edge from-layer="88" from-port="1" to-layer="89" to-port="1" />
		<edge from-layer="89" from-port="2" to-layer="90" to-port="0" />
		<edge from-layer="90" from-port="1" to-layer="93" to-port="0" />
		<edge from-layer="91" from-port="0" to-layer="92" to-port="0" />
		<edge from-layer="92" from-port="1" to-layer="93" to-port="1" />
		<edge from-layer="93" from-port="2" to-layer="96" to-port="0" />
		<edge from-layer="94" from-port="0" to-layer="95" to-port="0" />
		<edge from-layer="95" from-port="1" to-layer="96" to-port="1" />
		<edge from-layer="96" from-port="2" to-layer="97" to-port="0" />
		<edge from-layer="97" from-port="1" to-layer="98" to-port="0" />
		<edge from-layer="98" from-port="2" to-layer="99" to-port="0" />
		<edge from-layer="99" from-port="1" to-layer="102" to-port="0" />
		<edge from-layer="100" from-port="0" to-layer="101" to-port="0" />
		<edge from-layer="101" from-port="1" to-layer="102" to-port="1" />
		<edge from-layer="102" from-port="2" to-layer="105" to-port="0" />
		<edge from-layer="103" from-port="0" to-layer="104" to-port="0" />
		<edge from-layer="104" from-port="1" to-layer="105" to-port="1" />
		<edge from-layer="105" from-port="2" to-layer="108" to-port="0" />
		<edge from-layer="105" from-port="2" to-layer="142" to-port="0" />
		<edge from-layer="106" from-port="0" to-layer="107" to-port="0" />
		<edge from-layer="107" from-port="1" to-layer="108" to-port="1" />
		<edge from-layer="108" from-port="2" to-layer="111" to-port="0" />
		<edge from-layer="109" from-port="0" to-layer="110" to-port="0" />
		<edge from-layer="110" from-port="1" to-layer="111" to-port="1" />
		<edge from-layer="111" from-port="2" to-layer="112" to-port="0" />
		<edge from-layer="112" from-port="1" to-layer="115" to-port="0" />
		<edge from-layer="113" from-port="0" to-layer="114" to-port="0" />
		<edge from-layer="114" from-port="1" to-layer="115" to-port="1" />
		<edge from-layer="115" from-port="2" to-layer="118" to-port="0" />
		<edge from-layer="116" from-port="0" to-layer="117" to-port="0" />
		<edge from-layer="117" from-port="1" to-layer="118" to-port="1" />
		<edge from-layer="118" from-port="2" to-layer="134" to-port="1" />
		<edge from-layer="118" from-port="2" to-layer="119" to-port="0" />
		<edge from-layer="119" from-port="1" to-layer="122" to-port="0" />
		<edge from-layer="120" from-port="0" to-layer="121" to-port="0" />
		<edge from-layer="121" from-port="1" to-layer="122" to-port="1" />
		<edge from-layer="122" from-port="2" to-layer="125" to-port="0" />
		<edge from-layer="123" from-port="0" to-layer="124" to-port="0" />
		<edge from-layer="124" from-port="1" to-layer="125" to-port="1" />
		<edge from-layer="125" from-port="2" to-layer="126" to-port="0" />
		<edge from-layer="126" from-port="1" to-layer="129" to-port="0" />
		<edge from-layer="127" from-port="0" to-layer="128" to-port="0" />
		<edge from-layer="128" from-port="1" to-layer="129" to-port="1" />
		<edge from-layer="129" from-port="2" to-layer="132" to-port="0" />
		<edge from-layer="130" from-port="0" to-layer="131" to-port="0" />
		<edge from-layer="131" from-port="1" to-layer="132" to-port="1" />
		<edge from-layer="132" from-port="2" to-layer="133" to-port="0" />
		<edge from-layer="133" from-port="1" to-layer="134" to-port="0" />
		<edge from-layer="134" from-port="2" to-layer="135" to-port="0" />
		<edge from-layer="135" from-port="1" to-layer="138" to-port="0" />
		<edge from-layer="136" from-port="0" to-layer="137" to-port="0" />
		<edge from-layer="137" from-port="1" to-layer="138" to-port="1" />
		<edge from-layer="138" from-port="2" to-layer="141" to-port="0" />
		<edge from-layer="139" from-port="0" to-layer="140" to-port="0" />
		<edge from-layer="140" from-port="1" to-layer="141" to-port="1" />
		<edge from-layer="141" from-port="2" to-layer="142" to-port="1" />
		<edge from-layer="142" from-port="2" to-layer="145" to-port="0" />
		<edge from-layer="142" from-port="2" to-layer="179" to-port="0" />
		<edge from-layer="143" from-port="0" to-layer="144" to-port="0" />
		<edge from-layer="144" from-port="1" to-layer="145" to-port="1" />
		<edge from-layer="145" from-port="2" to-layer="148" to-port="0" />
		<edge from-layer="146" from-port="0" to-layer="147" to-port="0" />
		<edge from-layer="147" from-port="1" to-layer="148" to-port="1" />
		<edge from-layer="148" from-port="2" to-layer="149" to-port="0" />
		<edge from-layer="149" from-port="1" to-layer="152" to-port="0" />
		<edge from-layer="150" from-port="0" to-layer="151" to-port="0" />
		<edge from-layer="151" from-port="1" to-layer="152" to-port="1" />
		<edge from-layer="152" from-port="2" to-layer="155" to-port="0" />
		<edge from-layer="153" from-port="0" to-layer="154" to-port="0" />
		<edge from-layer="154" from-port="1" to-layer="155" to-port="1" />
		<edge from-layer="155" from-port="2" to-layer="156" to-port="0" />
		<edge from-layer="155" from-port="2" to-layer="171" to-port="1" />
		<edge from-layer="156" from-port="1" to-layer="159" to-port="0" />
		<edge from-layer="157" from-port="0" to-layer="158" to-port="0" />
		<edge from-layer="158" from-port="1" to-layer="159" to-port="1" />
		<edge from-layer="159" from-port="2" to-layer="162" to-port="0" />
		<edge from-layer="160" from-port="0" to-layer="161" to-port="0" />
		<edge from-layer="161" from-port="1" to-layer="162" to-port="1" />
		<edge from-layer="162" from-port="2" to-layer="163" to-port="0" />
		<edge from-layer="163" from-port="1" to-layer="166" to-port="0" />
		<edge from-layer="164" from-port="0" to-layer="165" to-port="0" />
		<edge from-layer="165" from-port="1" to-layer="166" to-port="1" />
		<edge from-layer="166" from-port="2" to-layer="169" to-port="0" />
		<edge from-layer="167" from-port="0" to-layer="168" to-port="0" />
		<edge from-layer="168" from-port="1" to-layer="169" to-port="1" />
		<edge from-layer="169" from-port="2" to-layer="170" to-port="0" />
		<edge from-layer="170" from-port="1" to-layer="171" to-port="0" />
		<edge from-layer="171" from-port="2" to-layer="172" to-port="0" />
		<edge from-layer="172" from-port="1" to-layer="175" to-port="0" />
		<edge from-layer="173" from-port="0" to-layer="174" to-port="0" />
		<edge from-layer="174" from-port="1" to-layer="175" to-port="1" />
		<edge from-layer="175" from-port="2" to-layer="178" to-port="0" />
		<edge from-layer="176" from-port="0" to-layer="177" to-port="0" />
		<edge from-layer="177" from-port="1" to-layer="178" to-port="1" />
		<edge from-layer="178" from-port="2" to-layer="179" to-port="1" />
		<edge from-layer="179" from-port="2" to-layer="182" to-port="0" />
		<edge from-layer="180" from-port="0" to-layer="181" to-port="0" />
		<edge from-layer="181" from-port="1" to-layer="182" to-port="1" />
		<edge from-layer="182" from-port="2" to-layer="185" to-port="0" />
		<edge from-layer="183" from-port="0" to-layer="184" to-port="0" />
		<edge from-layer="184" from-port="1" to-layer="185" to-port="1" />
		<edge from-layer="185" from-port="2" to-layer="186" to-port="0" />
		<edge from-layer="186" from-port="1" to-layer="189" to-port="0" />
		<edge from-layer="187" from-port="0" to-layer="188" to-port="0" />
		<edge from-layer="188" from-port="1" to-layer="189" to-port="1" />
		<edge from-layer="189" from-port="2" to-layer="192" to-port="0" />
		<edge from-layer="190" from-port="0" to-layer="191" to-port="0" />
		<edge from-layer="191" from-port="1" to-layer="192" to-port="1" />
		<edge from-layer="192" from-port="2" to-layer="193" to-port="0" />
		<edge from-layer="193" from-port="1" to-layer="196" to-port="0" />
		<edge from-layer="194" from-port="0" to-layer="195" to-port="0" />
		<edge from-layer="195" from-port="1" to-layer="196" to-port="1" />
		<edge from-layer="196" from-port="2" to-layer="199" to-port="0" />
		<edge from-layer="197" from-port="0" to-layer="198" to-port="0" />
		<edge from-layer="198" from-port="1" to-layer="199" to-port="1" />
		<edge from-layer="199" from-port="2" to-layer="220" to-port="0" />
		<edge from-layer="199" from-port="2" to-layer="202" to-port="0" />
		<edge from-layer="200" from-port="0" to-layer="201" to-port="0" />
		<edge from-layer="201" from-port="1" to-layer="202" to-port="1" />
		<edge from-layer="202" from-port="2" to-layer="205" to-port="0" />
		<edge from-layer="203" from-port="0" to-layer="204" to-port="0" />
		<edge from-layer="204" from-port="1" to-layer="205" to-port="1" />
		<edge from-layer="205" from-port="2" to-layer="206" to-port="0" />
		<edge from-layer="206" from-port="1" to-layer="209" to-port="0" />
		<edge from-layer="207" from-port="0" to-layer="208" to-port="0" />
		<edge from-layer="208" from-port="1" to-layer="209" to-port="1" />
		<edge from-layer="209" from-port="2" to-layer="212" to-port="0" />
		<edge from-layer="210" from-port="0" to-layer="211" to-port="0" />
		<edge from-layer="211" from-port="1" to-layer="212" to-port="1" />
		<edge from-layer="212" from-port="2" to-layer="213" to-port="0" />
		<edge from-layer="213" from-port="1" to-layer="216" to-port="0" />
		<edge from-layer="214" from-port="0" to-layer="215" to-port="0" />
		<edge from-layer="215" from-port="1" to-layer="216" to-port="1" />
		<edge from-layer="216" from-port="2" to-layer="219" to-port="0" />
		<edge from-layer="217" from-port="0" to-layer="218" to-port="0" />
		<edge from-layer="218" from-port="1" to-layer="219" to-port="1" />
		<edge from-layer="219" from-port="2" to-layer="220" to-port="1" />
		<edge from-layer="220" from-port="2" to-layer="241" to-port="0" />
		<edge from-layer="220" from-port="2" to-layer="223" to-port="0" />
		<edge from-layer="221" from-port="0" to-layer="222" to-port="0" />
		<edge from-layer="222" from-port="1" to-layer="223" to-port="1" />
		<edge from-layer="223" from-port="2" to-layer="226" to-port="0" />
		<edge from-layer="224" from-port="0" to-layer="225" to-port="0" />
		<edge from-layer="225" from-port="1" to-layer="226" to-port="1" />
		<edge from-layer="226" from-port="2" to-layer="227" to-port="0" />
		<edge from-layer="227" from-port="1" to-layer="230" to-port="0" />
		<edge from-layer="228" from-port="0" to-layer="229" to-port="0" />
		<edge from-layer="229" from-port="1" to-layer="230" to-port="1" />
		<edge from-layer="230" from-port="2" to-layer="233" to-port="0" />
		<edge from-layer="231" from-port="0" to-layer="232" to-port="0" />
		<edge from-layer="232" from-port="1" to-layer="233" to-port="1" />
		<edge from-layer="233" from-port="2" to-layer="234" to-port="0" />
		<edge from-layer="234" from-port="1" to-layer="237" to-port="0" />
		<edge from-layer="235" from-port="0" to-layer="236" to-port="0" />
		<edge from-layer="236" from-port="1" to-layer="237" to-port="1" />
		<edge from-layer="237" from-port="2" to-layer="240" to-port="0" />
		<edge from-layer="238" from-port="0" to-layer="239" to-port="0" />
		<edge from-layer="239" from-port="1" to-layer="240" to-port="1" />
		<edge from-layer="240" from-port="2" to-layer="241" to-port="1" />
		<edge from-layer="241" from-port="2" to-layer="262" to-port="0" />
		<edge from-layer="241" from-port="2" to-layer="244" to-port="0" />
		<edge from-layer="242" from-port="0" to-layer="243" to-port="0" />
		<edge from-layer="243" from-port="1" to-layer="244" to-port="1" />
		<edge from-layer="244" from-port="2" to-layer="247" to-port="0" />
		<edge from-layer="245" from-port="0" to-layer="246" to-port="0" />
		<edge from-layer="246" from-port="1" to-layer="247" to-port="1" />
		<edge from-layer="247" from-port="2" to-layer="248" to-port="0" />
		<edge from-layer="248" from-port="1" to-layer="251" to-port="0" />
		<edge from-layer="249" from-port="0" to-layer="250" to-port="0" />
		<edge from-layer="250" from-port="1" to-layer="251" to-port="1" />
		<edge from-layer="251" from-port="2" to-layer="254" to-port="0" />
		<edge from-layer="252" from-port="0" to-layer="253" to-port="0" />
		<edge from-layer="253" from-port="1" to-layer="254" to-port="1" />
		<edge from-layer="254" from-port="2" to-layer="255" to-port="0" />
		<edge from-layer="255" from-port="1" to-layer="258" to-port="0" />
		<edge from-layer="256" from-port="0" to-layer="257" to-port="0" />
		<edge from-layer="257" from-port="1" to-layer="258" to-port="1" />
		<edge from-layer="258" from-port="2" to-layer="261" to-port="0" />
		<edge from-layer="259" from-port="0" to-layer="260" to-port="0" />
		<edge from-layer="260" from-port="1" to-layer="261" to-port="1" />
		<edge from-layer="261" from-port="2" to-layer="262" to-port="1" />
		<edge from-layer="262" from-port="2" to-layer="265" to-port="0" />
		<edge from-layer="262" from-port="2" to-layer="278" to-port="1" />
		<edge from-layer="262" from-port="2" to-layer="277" to-port="1" />
		<edge from-layer="263" from-port="0" to-layer="264" to-port="0" />
		<edge from-layer="264" from-port="1" to-layer="265" to-port="1" />
		<edge from-layer="265" from-port="2" to-layer="268" to-port="0" />
		<edge from-layer="266" from-port="0" to-layer="267" to-port="0" />
		<edge from-layer="267" from-port="1" to-layer="268" to-port="1" />
		<edge from-layer="268" from-port="2" to-layer="269" to-port="0" />
		<edge from-layer="269" from-port="1" to-layer="272" to-port="0" />
		<edge from-layer="270" from-port="0" to-layer="271" to-port="0" />
		<edge from-layer="271" from-port="1" to-layer="272" to-port="1" />
		<edge from-layer="272" from-port="2" to-layer="275" to-port="0" />
		<edge from-layer="273" from-port="0" to-layer="274" to-port="0" />
		<edge from-layer="274" from-port="1" to-layer="275" to-port="1" />
		<edge from-layer="275" from-port="2" to-layer="276" to-port="0" />
		<edge from-layer="276" from-port="1" to-layer="277" to-port="0" />
		<edge from-layer="277" from-port="2" to-layer="278" to-port="0" />
		<edge from-layer="278" from-port="2" to-layer="281" to-port="0" />
		<edge from-layer="279" from-port="0" to-layer="280" to-port="0" />
		<edge from-layer="280" from-port="1" to-layer="281" to-port="1" />
		<edge from-layer="281" from-port="2" to-layer="284" to-port="0" />
		<edge from-layer="282" from-port="0" to-layer="283" to-port="0" />
		<edge from-layer="283" from-port="1" to-layer="284" to-port="1" />
		<edge from-layer="284" from-port="2" to-layer="285" to-port="0" />
		<edge from-layer="285" from-port="1" to-layer="288" to-port="0" />
		<edge from-layer="286" from-port="0" to-layer="287" to-port="0" />
		<edge from-layer="287" from-port="1" to-layer="288" to-port="1" />
		<edge from-layer="288" from-port="2" to-layer="291" to-port="0" />
		<edge from-layer="289" from-port="0" to-layer="290" to-port="0" />
		<edge from-layer="290" from-port="1" to-layer="291" to-port="1" />
		<edge from-layer="291" from-port="2" to-layer="292" to-port="0" />
		<edge from-layer="291" from-port="2" to-layer="307" to-port="1" />
		<edge from-layer="292" from-port="1" to-layer="295" to-port="0" />
		<edge from-layer="293" from-port="0" to-layer="294" to-port="0" />
		<edge from-layer="294" from-port="1" to-layer="295" to-port="1" />
		<edge from-layer="295" from-port="2" to-layer="298" to-port="0" />
		<edge from-layer="296" from-port="0" to-layer="297" to-port="0" />
		<edge from-layer="297" from-port="1" to-layer="298" to-port="1" />
		<edge from-layer="298" from-port="2" to-layer="299" to-port="0" />
		<edge from-layer="299" from-port="1" to-layer="302" to-port="0" />
		<edge from-layer="300" from-port="0" to-layer="301" to-port="0" />
		<edge from-layer="301" from-port="1" to-layer="302" to-port="1" />
		<edge from-layer="302" from-port="2" to-layer="305" to-port="0" />
		<edge from-layer="303" from-port="0" to-layer="304" to-port="0" />
		<edge from-layer="304" from-port="1" to-layer="305" to-port="1" />
		<edge from-layer="305" from-port="2" to-layer="306" to-port="0" />
		<edge from-layer="306" from-port="1" to-layer="307" to-port="0" />
		<edge from-layer="307" from-port="2" to-layer="308" to-port="0" />
		<edge from-layer="308" from-port="1" to-layer="311" to-port="0" />
		<edge from-layer="309" from-port="0" to-layer="310" to-port="0" />
		<edge from-layer="310" from-port="1" to-layer="311" to-port="1" />
		<edge from-layer="311" from-port="2" to-layer="314" to-port="0" />
		<edge from-layer="312" from-port="0" to-layer="313" to-port="0" />
		<edge from-layer="313" from-port="1" to-layer="314" to-port="1" />
		<edge from-layer="314" from-port="2" to-layer="317" to-port="0" />
		<edge from-layer="314" from-port="2" to-layer="351" to-port="0" />
		<edge from-layer="315" from-port="0" to-layer="316" to-port="0" />
		<edge from-layer="316" from-port="1" to-layer="317" to-port="1" />
		<edge from-layer="317" from-port="2" to-layer="320" to-port="0" />
		<edge from-layer="318" from-port="0" to-layer="319" to-port="0" />
		<edge from-layer="319" from-port="1" to-layer="320" to-port="1" />
		<edge from-layer="320" from-port="2" to-layer="321" to-port="0" />
		<edge from-layer="321" from-port="1" to-layer="324" to-port="0" />
		<edge from-layer="322" from-port="0" to-layer="323" to-port="0" />
		<edge from-layer="323" from-port="1" to-layer="324" to-port="1" />
		<edge from-layer="324" from-port="2" to-layer="327" to-port="0" />
		<edge from-layer="325" from-port="0" to-layer="326" to-port="0" />
		<edge from-layer="326" from-port="1" to-layer="327" to-port="1" />
		<edge from-layer="327" from-port="2" to-layer="343" to-port="1" />
		<edge from-layer="327" from-port="2" to-layer="328" to-port="0" />
		<edge from-layer="328" from-port="1" to-layer="331" to-port="0" />
		<edge from-layer="329" from-port="0" to-layer="330" to-port="0" />
		<edge from-layer="330" from-port="1" to-layer="331" to-port="1" />
		<edge from-layer="331" from-port="2" to-layer="334" to-port="0" />
		<edge from-layer="332" from-port="0" to-layer="333" to-port="0" />
		<edge from-layer="333" from-port="1" to-layer="334" to-port="1" />
		<edge from-layer="334" from-port="2" to-layer="335" to-port="0" />
		<edge from-layer="335" from-port="1" to-layer="338" to-port="0" />
		<edge from-layer="336" from-port="0" to-layer="337" to-port="0" />
		<edge from-layer="337" from-port="1" to-layer="338" to-port="1" />
		<edge from-layer="338" from-port="2" to-layer="341" to-port="0" />
		<edge from-layer="339" from-port="0" to-layer="340" to-port="0" />
		<edge from-layer="340" from-port="1" to-layer="341" to-port="1" />
		<edge from-layer="341" from-port="2" to-layer="342" to-port="0" />
		<edge from-layer="342" from-port="1" to-layer="343" to-port="0" />
		<edge from-layer="343" from-port="2" to-layer="344" to-port="0" />
		<edge from-layer="344" from-port="1" to-layer="347" to-port="0" />
		<edge from-layer="345" from-port="0" to-layer="346" to-port="0" />
		<edge from-layer="346" from-port="1" to-layer="347" to-port="1" />
		<edge from-layer="347" from-port="2" to-layer="350" to-port="0" />
		<edge from-layer="348" from-port="0" to-layer="349" to-port="0" />
		<edge from-layer="349" from-port="1" to-layer="350" to-port="1" />
		<edge from-layer="350" from-port="2" to-layer="351" to-port="1" />
		<edge from-layer="351" from-port="2" to-layer="354" to-port="0" />
		<edge from-layer="352" from-port="0" to-layer="353" to-port="0" />
		<edge from-layer="353" from-port="1" to-layer="354" to-port="1" />
		<edge from-layer="354" from-port="2" to-layer="357" to-port="0" />
		<edge from-layer="355" from-port="0" to-layer="356" to-port="0" />
		<edge from-layer="356" from-port="1" to-layer="357" to-port="1" />
		<edge from-layer="357" from-port="2" to-layer="358" to-port="0" />
		<edge from-layer="358" from-port="1" to-layer="361" to-port="0" />
		<edge from-layer="359" from-port="0" to-layer="360" to-port="0" />
		<edge from-layer="360" from-port="1" to-layer="361" to-port="1" />
		<edge from-layer="361" from-port="2" to-layer="364" to-port="0" />
		<edge from-layer="362" from-port="0" to-layer="363" to-port="0" />
		<edge from-layer="363" from-port="1" to-layer="364" to-port="1" />
		<edge from-layer="364" from-port="2" to-layer="380" to-port="1" />
		<edge from-layer="364" from-port="2" to-layer="365" to-port="0" />
		<edge from-layer="365" from-port="1" to-layer="368" to-port="0" />
		<edge from-layer="366" from-port="0" to-layer="367" to-port="0" />
		<edge from-layer="367" from-port="1" to-layer="368" to-port="1" />
		<edge from-layer="368" from-port="2" to-layer="371" to-port="0" />
		<edge from-layer="369" from-port="0" to-layer="370" to-port="0" />
		<edge from-layer="370" from-port="1" to-layer="371" to-port="1" />
		<edge from-layer="371" from-port="2" to-layer="372" to-port="0" />
		<edge from-layer="372" from-port="1" to-layer="375" to-port="0" />
		<edge from-layer="373" from-port="0" to-layer="374" to-port="0" />
		<edge from-layer="374" from-port="1" to-layer="375" to-port="1" />
		<edge from-layer="375" from-port="2" to-layer="378" to-port="0" />
		<edge from-layer="376" from-port="0" to-layer="377" to-port="0" />
		<edge from-layer="377" from-port="1" to-layer="378" to-port="1" />
		<edge from-layer="378" from-port="2" to-layer="379" to-port="0" />
		<edge from-layer="379" from-port="1" to-layer="380" to-port="0" />
		<edge from-layer="380" from-port="2" to-layer="381" to-port="0" />
		<edge from-layer="381" from-port="1" to-layer="384" to-port="0" />
		<edge from-layer="382" from-port="0" to-layer="383" to-port="0" />
		<edge from-layer="383" from-port="1" to-layer="384" to-port="1" />
		<edge from-layer="384" from-port="2" to-layer="387" to-port="0" />
		<edge from-layer="385" from-port="0" to-layer="386" to-port="0" />
		<edge from-layer="386" from-port="1" to-layer="387" to-port="1" />
		<edge from-layer="387" from-port="2" to-layer="390" to-port="0" />
		<edge from-layer="387" from-port="2" to-layer="403" to-port="1" />
		<edge from-layer="387" from-port="2" to-layer="402" to-port="1" />
		<edge from-layer="388" from-port="0" to-layer="389" to-port="0" />
		<edge from-layer="389" from-port="1" to-layer="390" to-port="1" />
		<edge from-layer="390" from-port="2" to-layer="393" to-port="0" />
		<edge from-layer="391" from-port="0" to-layer="392" to-port="0" />
		<edge from-layer="392" from-port="1" to-layer="393" to-port="1" />
		<edge from-layer="393" from-port="2" to-layer="394" to-port="0" />
		<edge from-layer="394" from-port="1" to-layer="397" to-port="0" />
		<edge from-layer="395" from-port="0" to-layer="396" to-port="0" />
		<edge from-layer="396" from-port="1" to-layer="397" to-port="1" />
		<edge from-layer="397" from-port="2" to-layer="400" to-port="0" />
		<edge from-layer="398" from-port="0" to-layer="399" to-port="0" />
		<edge from-layer="399" from-port="1" to-layer="400" to-port="1" />
		<edge from-layer="400" from-port="2" to-layer="401" to-port="0" />
		<edge from-layer="401" from-port="1" to-layer="402" to-port="0" />
		<edge from-layer="402" from-port="2" to-layer="403" to-port="0" />
		<edge from-layer="403" from-port="2" to-layer="406" to-port="0" />
		<edge from-layer="404" from-port="0" to-layer="405" to-port="0" />
		<edge from-layer="405" from-port="1" to-layer="406" to-port="1" />
		<edge from-layer="406" from-port="2" to-layer="409" to-port="0" />
		<edge from-layer="407" from-port="0" to-layer="408" to-port="0" />
		<edge from-layer="408" from-port="1" to-layer="409" to-port="1" />
		<edge from-layer="409" from-port="2" to-layer="410" to-port="0" />
		<edge from-layer="410" from-port="1" to-layer="413" to-port="0" />
		<edge from-layer="411" from-port="0" to-layer="412" to-port="0" />
		<edge from-layer="412" from-port="1" to-layer="413" to-port="1" />
		<edge from-layer="413" from-port="2" to-layer="416" to-port="0" />
		<edge from-layer="414" from-port="0" to-layer="415" to-port="0" />
		<edge from-layer="415" from-port="1" to-layer="416" to-port="1" />
		<edge from-layer="416" from-port="2" to-layer="417" to-port="0" />
		<edge from-layer="416" from-port="2" to-layer="432" to-port="1" />
		<edge from-layer="417" from-port="1" to-layer="420" to-port="0" />
		<edge from-layer="418" from-port="0" to-layer="419" to-port="0" />
		<edge from-layer="419" from-port="1" to-layer="420" to-port="1" />
		<edge from-layer="420" from-port="2" to-layer="423" to-port="0" />
		<edge from-layer="421" from-port="0" to-layer="422" to-port="0" />
		<edge from-layer="422" from-port="1" to-layer="423" to-port="1" />
		<edge from-layer="423" from-port="2" to-layer="424" to-port="0" />
		<edge from-layer="424" from-port="1" to-layer="427" to-port="0" />
		<edge from-layer="425" from-port="0" to-layer="426" to-port="0" />
		<edge from-layer="426" from-port="1" to-layer="427" to-port="1" />
		<edge from-layer="427" from-port="2" to-layer="430" to-port="0" />
		<edge from-layer="428" from-port="0" to-layer="429" to-port="0" />
		<edge from-layer="429" from-port="1" to-layer="430" to-port="1" />
		<edge from-layer="430" from-port="2" to-layer="431" to-port="0" />
		<edge from-layer="431" from-port="1" to-layer="432" to-port="0" />
		<edge from-layer="432" from-port="2" to-layer="433" to-port="0" />
		<edge from-layer="433" from-port="1" to-layer="436" to-port="0" />
		<edge from-layer="434" from-port="0" to-layer="435" to-port="0" />
		<edge from-layer="435" from-port="1" to-layer="436" to-port="1" />
		<edge from-layer="436" from-port="2" to-layer="439" to-port="0" />
		<edge from-layer="437" from-port="0" to-layer="438" to-port="0" />
		<edge from-layer="438" from-port="1" to-layer="439" to-port="1" />
		<edge from-layer="439" from-port="2" to-layer="442" to-port="0" />
		<edge from-layer="439" from-port="2" to-layer="476" to-port="0" />
		<edge from-layer="440" from-port="0" to-layer="441" to-port="0" />
		<edge from-layer="441" from-port="1" to-layer="442" to-port="1" />
		<edge from-layer="442" from-port="2" to-layer="445" to-port="0" />
		<edge from-layer="443" from-port="0" to-layer="444" to-port="0" />
		<edge from-layer="444" from-port="1" to-layer="445" to-port="1" />
		<edge from-layer="445" from-port="2" to-layer="446" to-port="0" />
		<edge from-layer="446" from-port="1" to-layer="449" to-port="0" />
		<edge from-layer="447" from-port="0" to-layer="448" to-port="0" />
		<edge from-layer="448" from-port="1" to-layer="449" to-port="1" />
		<edge from-layer="449" from-port="2" to-layer="452" to-port="0" />
		<edge from-layer="450" from-port="0" to-layer="451" to-port="0" />
		<edge from-layer="451" from-port="1" to-layer="452" to-port="1" />
		<edge from-layer="452" from-port="2" to-layer="468" to-port="1" />
		<edge from-layer="452" from-port="2" to-layer="453" to-port="0" />
		<edge from-layer="453" from-port="1" to-layer="456" to-port="0" />
		<edge from-layer="454" from-port="0" to-layer="455" to-port="0" />
		<edge from-layer="455" from-port="1" to-layer="456" to-port="1" />
		<edge from-layer="456" from-port="2" to-layer="459" to-port="0" />
		<edge from-layer="457" from-port="0" to-layer="458" to-port="0" />
		<edge from-layer="458" from-port="1" to-layer="459" to-port="1" />
		<edge from-layer="459" from-port="2" to-layer="460" to-port="0" />
		<edge from-layer="460" from-port="1" to-layer="463" to-port="0" />
		<edge from-layer="461" from-port="0" to-layer="462" to-port="0" />
		<edge from-layer="462" from-port="1" to-layer="463" to-port="1" />
		<edge from-layer="463" from-port="2" to-layer="466" to-port="0" />
		<edge from-layer="464" from-port="0" to-layer="465" to-port="0" />
		<edge from-layer="465" from-port="1" to-layer="466" to-port="1" />
		<edge from-layer="466" from-port="2" to-layer="467" to-port="0" />
		<edge from-layer="467" from-port="1" to-layer="468" to-port="0" />
		<edge from-layer="468" from-port="2" to-layer="469" to-port="0" />
		<edge from-layer="469" from-port="1" to-layer="472" to-port="0" />
		<edge from-layer="470" from-port="0" to-layer="471" to-port="0" />
		<edge from-layer="471" from-port="1" to-layer="472" to-port="1" />
		<edge from-layer="472" from-port="2" to-layer="475" to-port="0" />
		<edge from-layer="473" from-port="0" to-layer="474" to-port="0" />
		<edge from-layer="474" from-port="1" to-layer="475" to-port="1" />
		<edge from-layer="475" from-port="2" to-layer="476" to-port="1" />
		<edge from-layer="476" from-port="2" to-layer="479" to-port="0" />
		<edge from-layer="477" from-port="0" to-layer="478" to-port="0" />
		<edge from-layer="478" from-port="1" to-layer="479" to-port="1" />
		<edge from-layer="479" from-port="2" to-layer="482" to-port="0" />
		<edge from-layer="480" from-port="0" to-layer="481" to-port="0" />
		<edge from-layer="481" from-port="1" to-layer="482" to-port="1" />
		<edge from-layer="482" from-port="2" to-layer="483" to-port="0" />
		<edge from-layer="483" from-port="1" to-layer="484" to-port="0" />
		<edge from-layer="484" from-port="1" to-layer="487" to-port="0" />
		<edge from-layer="485" from-port="0" to-layer="486" to-port="0" />
		<edge from-layer="486" from-port="1" to-layer="487" to-port="1" />
		<edge from-layer="487" from-port="2" to-layer="490" to-port="0" />
		<edge from-layer="488" from-port="0" to-layer="489" to-port="0" />
		<edge from-layer="489" from-port="1" to-layer="490" to-port="1" />
		<edge from-layer="490" from-port="2" to-layer="492" to-port="0" />
		<edge from-layer="491" from-port="0" to-layer="492" to-port="1" />
		<edge from-layer="492" from-port="2" to-layer="495" to-port="0" />
		<edge from-layer="492" from-port="2" to-layer="499" to-port="0" />
		<edge from-layer="493" from-port="0" to-layer="494" to-port="0" />
		<edge from-layer="494" from-port="1" to-layer="495" to-port="1" />
		<edge from-layer="495" from-port="2" to-layer="497" to-port="0" />
		<edge from-layer="496" from-port="0" to-layer="497" to-port="1" />
		<edge from-layer="497" from-port="2" to-layer="498" to-port="0" />
		<edge from-layer="498" from-port="1" to-layer="499" to-port="1" />
		<edge from-layer="499" from-port="2" to-layer="508" to-port="0" />
		<edge from-layer="500" from-port="0" to-layer="507" to-port="0" />
		<edge from-layer="501" from-port="0" to-layer="502" to-port="0" />
		<edge from-layer="502" from-port="1" to-layer="503" to-port="0" />
		<edge from-layer="503" from-port="1" to-layer="506" to-port="0" />
		<edge from-layer="504" from-port="0" to-layer="506" to-port="1" />
		<edge from-layer="505" from-port="0" to-layer="506" to-port="2" />
		<edge from-layer="506" from-port="3" to-layer="507" to-port="1" />
		<edge from-layer="507" from-port="2" to-layer="508" to-port="1" />
		<edge from-layer="508" from-port="2" to-layer="511" to-port="0" />
		<edge from-layer="509" from-port="0" to-layer="510" to-port="0" />
		<edge from-layer="510" from-port="1" to-layer="511" to-port="1" />
		<edge from-layer="511" from-port="2" to-layer="512" to-port="0" />
	</edges>
	<rt_info>
		<MO_version value="2023.1.0-12185-9e6b00e51cd-releases/2023/1" />
		<Runtime_version value="2023.1.0-12185-9e6b00e51cd-releases/2023/1" />
		<conversion_parameters>
			<framework value="onnx" />
			<input value="input" />
			<input_model value="DIR/s3d-rgb-mobilenet-v3-large-stream-jester.onnx" />
			<input_shape value="[1, 3, 8, 224, 224]" />
			<is_python_api_used value="False" />
			<layout value="input(NCDHW)" />
			<mean_values value="[123.675, 116.28, 103.53]" />
			<model_name value="common-sign-language-0001" />
			<output value="output" />
			<output_dir value="/home/gh/open_model_zoo/demos/gesture_recognition_demo/python/public/common-sign-language-0001/FP16" />
			<scale_values value="[58.395, 57.12, 57.375]" />
		</conversion_parameters>
		<legacy_frontend value="False" />
	</rt_info>
</net>
